GRU_model1_epoch15.pt (torch_old, 172048 bytes, 7 tensors)

init_hx f4 [16, 64]
000000 00 00 00 00 00 00 00 00 00 00 00 00 00 00 00 00
       0.0 0.0 0.0 0.0
000010 00 00 00 00 00 00 00 00 00 00 00 00 00 00 00 00
       0.0 0.0 0.0 0.0
000020 00 00 00 00 00 00 00 00 00 00 00 00 00 00 00 00
       0.0 0.0 0.0 0.0
000030 00 00 00 00 00 00 00 00 00 00 00 00 00 00 00 00
       0.0 0.0 0.0 0.0
000040 00 00 00 00 00 00 00 00 00 00 00 00 00 00 00 00
       0.0 0.0 0.0 0.0
000050 00 00 00 00 00 00 00 00 00 00 00 00 00 00 00 00
       0.0 0.0 0.0 0.0
000060 00 00 00 00 00 00 00 00 00 00 00 00 00 00 00 00
       0.0 0.0 0.0 0.0
000070 00 00 00 00 00 00 00 00 00 00 00 00 00 00 00 00
       0.0 0.0 0.0 0.0
000080 00 00 00 00 00 00 00 00 00 00 00 00 00 00 00 00
       0.0 0.0 0.0 0.0
000090 00 00 00 00 00 00 00 00 00 00 00 00 00 00 00 00
       0.0 0.0 0.0 0.0
0000a0 00 00 00 00 00 00 00 00 00 00 00 00 00 00 00 00
       0.0 0.0 0.0 0.0
0000b0 00 00 00 00 00 00 00 00 00 00 00 00 00 00 00 00
       0.0 0.0 0.0 0.0
0000c0 00 00 00 00 00 00 00 00 00 00 00 00 00 00 00 00
       0.0 0.0 0.0 0.0
0000d0 00 00 00 00 00 00 00 00 00 00 00 00 00 00 00 00
       0.0 0.0 0.0 0.0
0000e0 00 00 00 00 00 00 00 00 00 00 00 00 00 00 00 00
       0.0 0.0 0.0 0.0
0000f0 00 00 00 00 00 00 00 00 00 00 00 00 00 00 00 00
       0.0 0.0 0.0 0.0
000100 00 00 00 00 00 00 00 00 00 00 00 00 00 00 00 00
       0.0 0.0 0.0 0.0
000110 00 00 00 00 00 00 00 00 00 00 00 00 00 00 00 00
       0.0 0.0 0.0 0.0
000120 00 00 00 00 00 00 00 00 00 00 00 00 00 00 00 00
       0.0 0.0 0.0 0.0
000130 00 00 00 00 00 00 00 00 00 00 00 00 00 00 00 00
       0.0 0.0 0.0 0.0
000140 00 00 00 00 00 00 00 00 00 00 00 00 00 00 00 00
       0.0 0.0 0.0 0.0
000150 00 00 00 00 00 00 00 00 00 00 00 00 00 00 00 00
       0.0 0.0 0.0 0.0
000160 00 00 00 00 00 00 00 00 00 00 00 00 00 00 00 00
       0.0 0.0 0.0 0.0
000170 00 00 00 00 00 00 00 00 00 00 00 00 00 00 00 00
       0.0 0.0 0.0 0.0
000180 00 00 00 00 00 00 00 00 00 00 00 00 00 00 00 00
       0.0 0.0 0.0 0.0
000190 00 00 00 00 00 00 00 00 00 00 00 00 00 00 00 00
       0.0 0.0 0.0 0.0
0001a0 00 00 00 00 00 00 00 00 00 00 00 00 00 00 00 00
       0.0 0.0 0.0 0.0
0001b0 00 00 00 00 00 00 00 00 00 00 00 00 00 00 00 00
       0.0 0.0 0.0 0.0
0001c0 00 00 00 00 00 00 00 00 00 00 00 00 00 00 00 00
       0.0 0.0 0.0 0.0
0001d0 00 00 00 00 00 00 00 00 00 00 00 00 00 00 00 00
       0.0 0.0 0.0 0.0
0001e0 00 00 00 00 00 00 00 00 00 00 00 00 00 00 00 00
       0.0 0.0 0.0 0.0
0001f0 00 00 00 00 00 00 00 00 00 00 00 00 00 00 00 00
       0.0 0.0 0.0 0.0
000200 00 00 00 00 00 00 00 00 00 00 00 00 00 00 00 00
       0.0 0.0 0.0 0.0
000210 00 00 00 00 00 00 00 00 00 00 00 00 00 00 00 00
       0.0 0.0 0.0 0.0
000220 00 00 00 00 00 00 00 00 00 00 00 00 00 00 00 00
       0.0 0.0 0.0 0.0
000230 00 00 00 00 00 00 00 00 00 00 00 00 00 00 00 00
       0.0 0.0 0.0 0.0
000240 00 00 00 00 00 00 00 00 00 00 00 00 00 00 00 00
       0.0 0.0 0.0 0.0
000250 00 00 00 00 00 00 00 00 00 00 00 00 00 00 00 00
       0.0 0.0 0.0 0.0
000260 00 00 00 00 00 00 00 00 00 00 00 00 00 00 00 00
       0.0 0.0 0.0 0.0
000270 00 00 00 00 00 00 00 00 00 00 00 00 00 00 00 00
       0.0 0.0 0.0 0.0
000280 00 00 00 00 00 00 00 00 00 00 00 00 00 00 00 00
       0.0 0.0 0.0 0.0
000290 00 00 00 00 00 00 00 00 00 00 00 00 00 00 00 00
       0.0 0.0 0.0 0.0
0002a0 00 00 00 00 00 00 00 00 00 00 00 00 00 00 00 00
       0.0 0.0 0.0 0.0
0002b0 00 00 00 00 00 00 00 00 00 00 00 00 00 00 00 00
       0.0 0.0 0.0 0.0
0002c0 00 00 00 00 00 00 00 00 00 00 00 00 00 00 00 00
       0.0 0.0 0.0 0.0
0002d0 00 00 00 00 00 00 00 00 00 00 00 00 00 00 00 00
       0.0 0.0 0.0 0.0
0002e0 00 00 00 00 00 00 00 00 00 00 00 00 00 00 00 00
       0.0 0.0 0.0 0.0
0002f0 00 00 00 00 00 00 00 00 00 00 00 00 00 00 00 00
       0.0 0.0 0.0 0.0
000300 00 00 00 00 00 00 00 00 00 00 00 00 00 00 00 00
       0.0 0.0 0.0 0.0
000310 00 00 00 00 00 00 00 00 00 00 00 00 00 00 00 00
       0.0 0.0 0.0 0.0
000320 00 00 00 00 00 00 00 00 00 00 00 00 00 00 00 00
       0.0 0.0 0.0 0.0
000330 00 00 00 00 00 00 00 00 00 00 00 00 00 00 00 00
       0.0 0.0 0.0 0.0
000340 00 00 00 00 00 00 00 00 00 00 00 00 00 00 00 00
       0.0 0.0 0.0 0.0
000350 00 00 00 00 00 00 00 00 00 00 00 00 00 00 00 00
       0.0 0.0 0.0 0.0
000360 00 00 00 00 00 00 00 00 00 00 00 00 00 00 00 00
       0.0 0.0 0.0 0.0
000370 00 00 00 00 00 00 00 00 00 00 00 00 00 00 00 00
       0.0 0.0 0.0 0.0
000380 00 00 00 00 00 00 00 00 00 00 00 00 00 00 00 00
       0.0 0.0 0.0 0.0
000390 00 00 00 00 00 00 00 00 00 00 00 00 00 00 00 00
       0.0 0.0 0.0 0.0
0003a0 00 00 00 00 00 00 00 00 00 00 00 00 00 00 00 00
       0.0 0.0 0.0 0.0
0003b0 00 00 00 00 00 00 00 00 00 00 00 00 00 00 00 00
       0.0 0.0 0.0 0.0
0003c0 00 00 00 00 00 00 00 00 00 00 00 00 00 00 00 00
       0.0 0.0 0.0 0.0
0003d0 00 00 00 00 00 00 00 00 00 00 00 00 00 00 00 00
       0.0 0.0 0.0 0.0
0003e0 00 00 00 00 00 00 00 00 00 00 00 00 00 00 00 00
       0.0 0.0 0.0 0.0
0003f0 00 00 00 00 00 00 00 00 00 00 00 00 00 00 00 00
       0.0 0.0 0.0 0.0

weight_ih f4 [192, 122]
000000 60 b3 1a 3e e8 7f 89 be 8e 3a bf bc b7 f8 d3 bd
       0.15107489 -0.26855397 -0.02334335 -0.10350173
000010 c1 be 2c bd 1f 33 aa be ec 69 b1 3d 68 02 2f 3e
       -0.042174105 -0.33242127 0.08662781 0.17090762
000020 d9 1d 09 be 8c 99 d3 3d b4 1c 3f be 14 48 18 3e
       -0.13390292 0.10332021 -0.18663293 0.14871246
000030 9e aa 11 be 8f 98 2e be 5d 98 71 bd 83 39 27 3e
       -0.14225242 -0.17050384 -0.058983196 0.16330533
000040 c3 07 55 be 4c e6 00 3e 3f ff 92 be 5c a4 0b 3e
       -0.20803742 0.12587851 -0.28710362 0.13636917
000050 d0 d8 ca be 1b 22 8d bb cc 85 05 be db dd 33 be
       -0.3961854 -0.004307044 -0.1303932 -0.175651
000060 4a 66 fb 3d cc a3 73 3e 90 3a 2b be e0 89 35 bd
       0.122753695 0.23792952 -0.16721559 -0.04432094
000070 0c 96 ad bd 1c f1 54 3e 5e af d2 bd a0 8b 05 be
       -0.08475885 0.20795101 -0.10287355 -0.13041544
000080 55 50 6e bc 4c cc b8 be b5 64 49 be 3f 22 2a 3e
       -0.01454552 -0.36093366 -0.19667323 0.16614626
000090 fd 76 47 3d 4e 57 89 be ba 75 39 3d d2 5e 93 3e
       0.04869746 -0.2682442 0.04527829 0.2878328
0000a0 f9 48 4a 3e f7 b4 36 bd 24 d0 89 be 98 18 6f 3d
       0.197544 -0.044606175 -0.2691661 0.058373064
0000b0 55 59 63 3d cd e7 89 bc 4c 8c 79 bd f8 93 61 3d
       0.055505116 -0.016834164 -0.060924813 0.055072755
0000c0 89 c3 76 3d 0f 42 ad 3d 64 b3 38 be 6c c3 41 3e
       0.06024507 0.08459865 -0.18037182 0.18922204
0000d0 ec 33 67 bd c5 e3 8e bd 0c e4 b2 3d 3d 3d 1a 3e
       -0.056446 -0.06977037 0.08734903 0.15062423
0000e0 dd fb db 3b 62 96 ef bd 7b bd 12 be 60 a2 72 3d
       0.006713374 -0.11698605 -0.14330094 0.059236884
0000f0 37 a5 0d be 31 b2 5c bd 8d 75 66 bd 52 d0 d5 bb
       -0.13832556 -0.053880874 -0.05626445 -0.006525078
000100 ac 81 ec bd e0 9a 82 be d1 a1 1f 3d 5f d2 93 bd
       -0.115481704 -0.25508785 0.03897268 -0.072178595
000110 c4 88 16 3e c9 4c 91 3c 99 bb 0e 3d 84 cf 5f be
       0.1470061 0.01773681 0.034846876 -0.21856505
000120 2b ed 5e bd ea 83 11 bd 5d 39 f3 3f fb 30 49 3e
       -0.0544254 -0.035526194 1.9001881 0.19647591
000130 72 58 87 be 34 65 0a c0 a7 44 b9 be fa 0a 31 40
       -0.26434666 -2.162427 -0.3618519 2.766295
000140 ed c5 73 c0 8e 4e 39 3f 82 21 4a be c5 04 83 3f
       -3.8089554 0.7238549 -0.19739345 1.023583
000150 42 28 6d be 94 ad bb 3f 97 a8 c4 bf fb 36 30 40
       -0.23159888 1.4662347 -1.536395 2.7533557
000160 6d 77 20 3f 5a 96 63 bf 7b 23 b0 3f 0c 64 c7 bf
       0.6268223 -0.88901293 1.3760828 -1.5577407
000170 85 a5 9d bf 79 08 cb 3c 36 57 79 3f 34 0b 34 40
       -1.2316138 0.024784314 0.973987 2.8131838
000180 49 79 90 be 09 4f 7e 40 13 f1 3e c0 d9 6e a7 3f
       -0.28217533 3.973574 -2.983464 1.3080703
000190 d0 f0 b7 bf ab fe 41 3b 2b ec c7 be 18 8a 62 bf
       -1.4370365 0.0029601257 -0.3904737 -0.88491964
0001a0 bd 24 45 bf 1c c3 15 be 2f ea 34 3f a9 f6 90 bf
       -0.77009183 -0.1462521 0.70669836 -1.1325275
0001b0 3d 44 ec bf fc 78 bf bf 7a 0b 00 bc 3e e0 07 bf
       -1.8458325 -1.4958797 -0.007815236 -0.5307654
0001c0 15 97 33 c0 4b 8a b8 3f ce c2 97 3e c0 cd 83 3e
       -2.8060963 1.4417204 0.29640812 0.25742912
0001d0 e2 31 0d bf 04 03 6c c0 17 46 53 bf ba 0d 0f bf
       -0.5515424 -3.687684 -0.82528824 -0.5588032
0001e0 00 b3 f1 ba 9a d0 84 3d db 3c df 3d 47 bf d2 3a
       -0.0018440187 0.064851 0.10900279 0.0016078734
0001f0 fe 57 fa bd a5 ac d0 bd d3 31 c6 3e b8 d7 11 bf
       -0.122238144 -0.10189179 0.38709888 -0.56969786
000200 d0 20 1e bd b6 d3 d8 3d 07 ea ec be 5b b3 df bd
       -0.03860551 0.10587256 -0.462723 -0.10922881
000210 36 33 f4 bd 48 bc 22 3e 3e 09 99 3c b8 a1 9a bc
       -0.1192383 0.15892136 0.018681165 -0.018875942
000220 50 1f b6 3d ea ee 66 3d 75 1f f2 3c c6 b5 e1 3e
       0.08892691 0.05638019 0.029556016 0.44083995
000230 54 1d c5 3d 24 41 35 3e 24 26 b2 bd 37 14 11 be
       0.096247345 0.1770063 -0.08698681 -0.14167868
000240 4e ad 5a bd 6b fe ab 3e 0f c0 a7 be ea 5b 9f bc
       -0.053387932 0.33592543 -0.32763717 -0.019453008
000250 6d 06 2e bd 7c 5b 38 be e7 24 d3 bd 03 e6 2d 3e
       -0.042486597 -0.18003649 -0.10309773 0.16982274
000260 fa 7a 24 3e bd 59 1b 3e 6a 54 48 be 78 53 82 be
       0.16062537 0.15170951 -0.19563451 -0.25454307
000270 2e ed de bd 06 d7 4c 3e d1 5b a7 3d 56 91 64 bb
       -0.10885082 0.200039 0.081718095 -0.0034876666
000280 98 bb 0f 3e 53 e7 de be e0 97 84 be 1c 49 52 3d
       0.14036405 -0.4353586 -0.2589712 0.051339254
000290 3d 18 f3 3d 35 78 9d 3d 25 49 f8 bd f9 80 29 be
       0.118698575 0.07688943 -0.12123326 -0.16553105
0002a0 00 ca 5e 3d f8 e6 e6 bd 1a cf f3 3d d6 44 be 3d
       0.05439186 -0.112745225 0.11904736 0.09290473
0002b0 94 bd b4 3e f8 3d 89 be ec 7d 75 bd ee d0 f5 3c
       0.35300887 -0.2680509 -0.05993454 0.030006852
0002c0 5a a5 b3 3d 32 92 8f bd 97 ec f9 3d b7 b0 59 3e
       0.08771773 -0.070103064 0.12203329 0.21258818
0002d0 6d 2b 2f be 73 c3 a9 be 36 94 61 be 22 93 cc 3d
       -0.1710641 -0.33156928 -0.22029194 0.09989001
0002e0 3f db cf 3c d4 4a 77 be 3c ba 55 bd 6b 5c bf 3e
       0.0253731 -0.24149638 -0.05217956 0.37375197
0002f0 3b ef a5 3d d2 c4 7f be b6 db 96 bd 12 5a 14 3e
       0.0810227 -0.24977425 -0.07366125 0.14487484
000300 c6 ce 23 3e e5 1e 93 3c 5a 0b 31 be bb c1 76 3b
       0.15996847 0.017959068 -0.17289487 0.0037652093
000310 cf bb e8 3f 48 12 71 bc 15 43 64 3e 16 2a 5b bf
       1.8182315 -0.014713831 0.22291215 -0.85611093
000320 7a 9c de 3d ca 44 77 3e cd d6 db bf b9 e9 03 c0
       0.10869689 0.24147335 -1.7174927 -2.0611403
000330 42 75 f7 3f d6 5f 08 c0 5e 02 5a bf 69 97 06 3f
       1.9332659 -2.1308494 -0.8515986 0.52574784
000340 23 65 83 bf 75 23 93 3f 51 c5 12 bf e8 5c 83 bf
       -1.026524 1.1495196 -0.5733233 -1.0262728
000350 06 54 b5 bf a1 b5 d3 bf 9b fc c5 3e 72 9e aa 3f
       -1.4166267 -1.6539804 0.38669285 1.3329604
000360 29 f9 97 3f 4a 94 cc bf fc 44 08 3f 50 6a dd be
       1.1872913 -1.5982754 0.5323026 -0.43245173
000370 8f 07 94 3f 43 59 09 40 b6 ee 13 3f 86 1c 78 bf
       1.1564807 2.146073 0.5778612 -0.96918523
000380 cd 97 e3 3d 39 65 bc 3e d5 44 eb be 8f e3 9e be
       0.11112938 0.36795977 -0.45950952 -0.31032988
000390 b2 9b 48 3e 01 e7 ac be f1 82 d9 3e 83 06 73 3d
       0.19590643 -0.33769992 0.42482713 0.059332382
0003a0 25 8e c3 be 64 4b 37 3f 28 6e 2d 3f 27 76 e1 3e
       -0.38194385 0.7159941 0.6774621 0.44035456
0003b0 91 61 2e be 27 c3 0f bf dd 9c 4a 3e f2 c7 33 3f
       -0.17029406 -0.56157154 0.19786401 0.7022697
0003c0 ae 45 1b 3e db ca 97 3f 30 53 c4 bc 78 1b 0d 3d
       0.151633 1.1858782 -0.023965448 0.034450024
0003d0 ea 6e 05 be 69 ad 49 3e bd b1 a4 bd 50 e8 09 be
       -0.13030592 0.19695057 -0.080417134 -0.13467526
0003e0 22 0e 9f be 65 c3 03 be 5a e8 04 bf 6b 93 1f be
       -0.3106547 -0.12867506 -0.5191704 -0.15583579
0003f0 2c 9c 80 3d 08 d0 38 3e 9e d0 b0 bd 2a c5 da bd
       0.062797874 0.18048108 -0.086335406 -0.10682137

weight_hh f4 [192, 64]
000000 24 8a b0 3e 12 9f c1 3e 6c 48 aa be 5a e3 6f 3e
       0.34480393 0.37816674 -0.33258379 0.23426571
000010 bf 37 9f be 77 51 34 be 19 5d d8 be 07 e5 3a 3c
       -0.31097218 -0.17609201 -0.42258528 0.011407143
000020 f8 05 26 bf 6a fa ad bf 84 15 c5 3d cf c6 bd be
       -0.6485286 -1.3592045 0.096232444 -0.3706574
000030 05 6a ae be e2 3b 19 3e ab 80 d0 3e 34 e4 80 3e
       -0.3406526 0.1496425 0.40723166 0.25174105
000040 2f 60 d2 bd 4d 82 9d bf a5 86 85 be 2d bc 79 3e
       -0.10272252 -1.230539 -0.26079288 0.2438819
000050 83 56 57 3f 6e 5e 85 3e ed d5 2b 3e 7b 08 b6 be
       0.8411638 0.26048607 0.16780825 -0.35553345
000060 25 93 24 3e f0 27 c1 3d 56 27 c5 be 2f 9c 44 bf
       0.16071756 0.094314456 -0.38506573 -0.7680082
000070 3e ab df 3e 0c 21 4d be 40 97 05 3d e7 4f bf bd
       0.43685335 -0.20032138 0.032614946 -0.09341412
000080 fe c4 bb 3e 6c 7e 85 3c 19 3d ab 3e a0 84 33 be
       0.3667373 0.016295634 0.3344505 -0.17531061
000090 2c 82 70 bf 97 da bd 3d 9e 1e 14 be 3e d4 85 3d
       -0.93948627 0.09270208 -0.14464805 0.065346226
0000a0 ad 4c 80 be f9 1e 04 be 57 62 81 3e ec 9e 0f 3e
       -0.250585 -0.1290244 0.2527034 0.14025468
0000b0 14 8c 92 3d 55 4e 26 3d 39 ba d3 be 65 02 ba be
       0.07155624 0.040602047 -0.41353014 -0.36329952
0000c0 51 55 71 bf fe 9a 60 3d c8 79 ad be 1a e4 34 3e
       -0.9427081 0.054835312 -0.33881974 0.17665139
0000d0 f7 7a 38 be 3c 20 0d bd 55 7c a3 3d bd 99 10 bf
       -0.18015657 -0.03445457 0.07982699 -0.56484586
0000e0 e8 9d 4c bd 8c 26 da bd 69 20 2b 3f 91 cc 50 be
       -0.04995528 -0.106518835 0.6684633 -0.20390536
0000f0 3b 8e 39 be 92 9e b8 3d e6 ed 7d 3e 7f 3e ed 3e
       -0.18120663 0.0901462 0.24797782 0.46336743
000100 07 9c b3 be ac be 88 3f bd 72 6a 3d 37 e9 c8 be
       -0.35079977 1.0683188 0.05723833 -0.3924043
000110 fc 14 25 bc 95 1e b0 bd 23 bd 5b bd cd 4b 85 be
       -0.010075804 -0.08599583 -0.05364717 -0.26034394
000120 2a 37 03 bf c0 1a 9f 3c e2 6d 58 bd ab 0c 68 3f
       -0.5125605 0.019421935 -0.052839167 0.9064433
000130 8a 16 aa 3e dd fa c7 3e 44 1b 6c 3e fc 7e 89 3d
       0.3322032 0.3905858 0.23057276 0.067136735
000140 4d c2 92 3e 99 7d 7b be ab 47 72 3e 5d b2 77 3d
       0.28663865 -0.2455963 0.23660152 0.060472835
000150 c4 04 0c bd 36 dd 6b 3d 81 0f 52 be 84 89 10 be
       -0.034184232 0.05758401 -0.20513727 -0.14114958
000160 d4 fa a9 3e f6 07 9d be d7 6f 97 bd 7f e9 20 3f
       0.3319918 -0.30670136 -0.07394379 0.62856287
000170 00 9a 62 3e 07 01 c6 bd f8 77 85 be 16 54 52 be
       0.22129059 -0.09668165 -0.2606809 -0.20539889
000180 0d 41 9a 3e ca 8b 22 3e 66 4a bd bd d6 c5 ad be
       0.30127755 0.15873638 -0.09242706 -0.3394
000190 47 77 bf 3e b4 86 63 3f 06 fe 41 bf a8 a4 a3 bd
       0.3739569 0.88877416 -0.75778234 -0.0799039
0001a0 15 06 c0 be 3d 16 32 be 75 08 19 3f f6 57 77 be
       -0.3750464 -0.17391296 0.5977853 -0.24154648
0001b0 cc f6 8c be 18 c3 4d 3d 74 a6 83 3e 0c a1 a0 be
       -0.2753204 0.050234884 0.2571293 -0.3137287
0001c0 e3 b5 4e bf 48 b2 81 bb 42 a0 e1 be 60 ed 31 3d
       -0.8074629 -0.0039580204 -0.4406758 0.04343927
0001d0 2b 3f 21 3e 43 81 92 3e 21 20 48 3c a9 f9 8b 3d
       0.15746753 0.28614244 0.012214691 0.06834728
0001e0 ae bb 83 be 6d e4 60 3c e7 84 b8 3e cb d2 b2 be
       -0.25729126 0.013726336 0.36038896 -0.34926447
0001f0 89 16 98 3d 69 64 54 3f f1 e9 3a bf 50 2d b4 3e
       0.07426173 0.82965714 -0.73013216 0.3519082
000200 85 93 8e be b9 47 ee 3e c2 79 bc 3d f1 50 0a bd
       -0.27846923 0.46539095 0.09202911 -0.033768598
000210 09 16 53 3c c6 c5 71 3e 7f 72 04 bf e8 2d e0 bd
       0.012883672 0.23610601 -0.5173721 -0.10946256
000220 b6 46 2e be 4b 4f a9 3e 94 4e 0f 3d 9f ee 1c 3f
       -0.17019162 0.33068308 0.034987047 0.61301607
000230 29 bb a5 3d fa 00 37 3f d5 85 c3 3e 10 7a ba bc
       0.080923386 0.71485865 0.38188043 -0.022763282
000240 a4 ca 87 3f 56 5c 87 3d 7f 38 e1 bd 91 89 12 3e
       1.0608716 0.066094086 -0.10997104 0.1431029
000250 2b 98 71 bf 9c 2b b7 bd a1 9e 44 3e 14 83 fb be
       -0.94372815 -0.08943865 0.19201137 -0.49123442
000260 a2 13 d8 3d 85 ce b9 bd 14 70 6b 3e 05 f9 50 3e
       0.1055062 -0.090725936 0.22991973 0.20407493
000270 86 ad 0f bd 2d 0d 1b 3f bc 1c 6d bd 1a 1f 0a bf
       -0.035077594 0.6056698 -0.05788873 -0.5395371
000280 b8 40 ea 3e 76 ce fa be 85 80 90 3e c6 1c 80 be
       0.457525 -0.48985642 0.28223053 -0.25021952
000290 29 2e bd 3d af 24 6c 3e fd 54 ce bc 0f f7 8b bd
       0.0923732 0.23060869 -0.02518701 -0.06834232
0002a0 c7 a1 08 bf 39 d8 5a bd 20 fb c1 3e 30 93 b9 bd
       -0.5337185 -0.053428862 0.37886906 -0.09061277
0002b0 db 61 39 3e 74 cf 00 3e 07 c4 96 be 92 52 00 3f
       0.18103735 0.12579137 -0.29446432 0.5012599
0002c0 9c 7d c8 be b3 10 52 3e 16 35 12 3e 3b 82 0f 3c
       -0.39158332 0.20514183 0.14278063 0.008759077
0002d0 19 97 22 3d 11 4a 97 3e 35 3f 04 3d 6f 35 f5 3d
       0.03969488 0.29548696 0.03228684 0.11973082
0002e0 0c fb b0 be c9 38 05 bf 06 6d 7c bd ef 7c aa 3f
       -0.34566534 -0.5203977 -0.06162741 1.3319377
0002f0 24 b0 cd 3e 64 07 0e b9 80 20 ac 3c 6c 61 2a 3e
       0.40173447 -0.00013544929 0.021011591 0.16638726
000300 f1 a9 32 bf 61 9b e3 3e b7 21 2b 3d 6c 4d 23 bf
       -0.6979056 0.44454482 0.0417802 -0.6379001
000310 64 83 86 bd 99 15 3e 3f da 53 34 bd a5 52 de bd
       -0.065680295 0.74251705 -0.04402528 -0.10855607
000320 03 4b 3a bf c9 22 8e 3f f3 4a 97 3d 98 a6 39 bf
       -0.7277071 1.1104366 0.07387342 -0.72519827
000330 d3 9e 49 bf b2 58 52 3c b1 7d ad 3e cf 3e f2 3e
       -0.7875797 0.012838529 0.33884957 0.47313544
000340 47 fe 17 3e f2 96 13 be ee b2 47 be ac 70 1e bf
       0.14843093 -0.1441305 -0.1950185 -0.61890674
000350 61 ae 89 bd e5 69 08 bf 53 5f 24 bf a9 d2 a9 3c
       -0.06722713 -0.5328658 -0.64207953 0.020730333
000360 dd 35 8e 3f 6d db f9 3d 59 49 c0 be d7 95 70 be
       1.1110188 0.12200055 -0.3755596 -0.2349466
000370 6b 17 17 3f 52 40 7f 3e 38 3c 86 be 7c 18 bf be
       0.5902011 0.2492688 -0.26217818 -0.37323368
000380 9f 44 25 bf d0 00 1c 3f 2a d5 18 bf 40 2c 52 3f
       -0.6455783 0.6093874 -0.5970026 0.8209877
000390 3a 33 57 be 90 b1 c2 3f 1c fc 56 be bd 67 14 3b
       -0.21015635 1.5210438 -0.2099461 0.002264484
0003a0 6f 3b 82 be ed 6a 20 be e3 df fb be 0c 69 6a be
       -0.2543597 -0.15665789 -0.4919425 -0.22891635
0003b0 48 13 93 be 14 7d 2f bd bf 26 1e be 8b 9a f8 3e
       -0.28725648 -0.042843893 -0.15444468 0.48555407
0003c0 31 26 02 3f 3b 0f 12 3e 86 e4 34 3d 1c 2d 2d be
       0.50839525 0.14263622 0.04416325 -0.16911739
0003d0 40 a1 fb 3d eb e8 3c 3d 3d 95 28 bf 9c b7 7c be
       0.12286615 0.046120565 -0.6585272 -0.24679416
0003e0 71 29 ae 3e 84 25 8e be 91 6c 16 3f 29 a3 0c 3e
       0.34015992 -0.27762997 0.5875941 0.13734116
0003f0 60 31 69 3e 95 c0 e9 3d 16 7e 00 be 42 9a 03 3f
       0.22772741 0.11413685 -0.12548098 0.51407254

bias_ih f4 [192]
000000 5e 5e 0c bd df 35 9d 3d 22 50 5e bd c5 49 0e be
       -0.034269683 0.07676291 -0.05427564 -0.13895328
000010 47 7d 17 3f 5b 9c 0c 3d b7 1a ae bd 7f d1 c9 ba
       0.59175533 0.0343288 -0.08501189 -0.0015397518
000020 c2 4d 05 bc ca 9a be be 0d 78 88 b8 2f 87 07 bd
       -0.008136215 -0.3722747 -6.5073466e-05 -0.033087905
000030 1b 5e 4e 3e 13 94 67 bc 31 ca f1 3c 48 dd 84 be
       0.20153086 -0.014134425 0.029515358 -0.25950074
000040 97 d4 ad bd fc 30 ea be ff 20 e5 3d 4c 69 16 3e
       -0.08487814 -0.45740497 0.11187934 0.14688605
000050 8c 0b 43 be 71 20 a2 be d1 3f 20 3e 81 74 bb b8
       -0.19047374 -0.31665376 0.15649344 -8.9385554e-05
000060 ff 0b aa bd 08 e6 4a be e2 fc 76 be 56 73 80 3e
       -0.08303069 -0.19814312 -0.24119905 0.25087994
000070 d3 9f d0 bc 57 c9 78 bd f7 ec b8 3e 43 56 c7 3e
       -0.025466835 -0.060738888 0.3611829 0.38933
000080 70 36 fc 3b 51 9c 94 bd ee ce 23 3e 46 fa 1d 3f
       0.007696919 -0.072563775 0.15996906 0.6171001
000090 04 c8 b3 bd 6b ed 1f be 4c 57 10 3f f9 dd 1e 3f
       -0.08778384 -0.15617912 0.56383204 0.62057453
0000a0 79 bb 5a 3e 18 f5 05 3f cb 6a 22 3e 80 ba 31 3d
       0.21360578 0.5232711 0.15861051 0.04339075
0000b0 62 bb 06 3c 53 4e 94 3d d1 48 bb bd 8e 8c 6e be
       0.0082233865 0.07241502 -0.09144748 -0.23295805
0000c0 eb 62 d4 bd 11 cd 11 3f ba be 03 3d 2e 92 73 3e
       -0.103704296 0.5695353 0.032164313 0.23786232
0000d0 ae 9b 1d be 0a 7f 5e be 26 a3 d8 3d 2b 09 5e 3e
       -0.15391418 -0.21728149 0.10577993 0.21683185
0000e0 3b 49 1f 3d 89 7d c1 bd 87 66 c4 3c 86 e1 c3 be
       0.038888197 -0.09447772 0.02397467 -0.38257998
0000f0 9f b6 46 be b3 63 8a bd ed 37 43 bd 29 07 09 be
       -0.19405602 -0.06757297 -0.047660757 -0.13381638
000100 18 27 25 bf d3 9c 42 be 95 e5 3f bf e1 7c ba be
       -0.6451278 -0.19005136 -0.7495969 -0.364234
000110 91 71 66 bd 3a bc 2b bf 19 ec 57 bf e6 90 04 3f
       -0.05626065 -0.67084086 -0.8434463 0.517836
000120 c3 06 bf be 1b 22 a4 be 37 44 34 3e 3b f4 50 3e
       -0.37309846 -0.3205727 0.17604147 0.20405667
000130 ff e9 8c be 03 77 6a bf 3a b3 c8 be d2 1c 53 3e
       -0.27522275 -0.9158785 -0.3919924 0.20616463
000140 3b 2b 34 be 31 e1 08 bf df f6 02 bf 60 21 9a be
       -0.17594616 -0.53468615 -0.51157945 -0.30103588
000150 23 b8 33 bf a0 d1 23 bf 58 c7 a0 3d ea 68 ad be
       -0.70202845 -0.6399174 0.07850522 -0.33869106
000160 41 f5 bc be 47 84 21 be 92 24 e2 be 36 9d 3b be
       -0.36905864 -0.15773116 -0.44168526 -0.1832169
000170 2c db b1 be 48 77 14 bf 46 75 0d bf 62 e8 0c bd
       -0.34737527 -0.5799451 -0.5525707 -0.034401305
000180 05 e8 d2 be f5 8b 68 be 65 6f 3c be c4 9f 9f 3c
       -0.41192642 -0.2270964 -0.18401869 0.019485362
000190 fd 06 de be 8d a2 0e bf d4 22 e8 be 03 89 71 be
       -0.43364707 -0.5571678 -0.45339072 -0.23587422
0001a0 d7 f2 01 bf fc 2b 09 bf 56 ff 77 be ea 0f ad 3e
       -0.5076117 -0.5358274 -0.24218497 0.33801204
0001b0 1a 2b fa be 4b a3 e0 3e 16 64 73 bf f0 b6 34 bf
       -0.4886101 0.43874583 -0.95074594 -0.7059164
0001c0 48 d5 2a bf f8 af 76 bf a1 bd 04 bf a3 ff 03 bd
       -0.6673169 -0.96362257 -0.5185185 -0.032226216
0001d0 3d c2 09 bf 0a 99 2f bf c9 5e 47 bf c5 29 43 bf
       -0.5381201 -0.68592894 -0.77879006 -0.7623561
0001e0 82 21 7e bc 7a 45 1a be d6 d5 93 be 79 66 4e bf
       -0.015510919 -0.15065566 -0.2887408 -0.8062511
0001f0 6b f6 14 bf aa 61 6f be bf 10 37 bf e4 80 ca be
       -0.58188504 -0.233771 -0.7150993 -0.3955146
000200 5b c3 c8 3e 03 f2 c6 3e e4 be e8 3e e5 28 59 bd
       0.39211544 0.38856515 0.45458138 -0.053017516
000210 de 69 61 bd 36 e5 2a 3e 4c e9 c7 3e c2 59 03 bf
       -0.055032603 0.16689 0.3904518 -0.51308835
000220 81 68 0b bf 0f 45 0c be 5a 50 e3 be a6 00 96 bd
       -0.54456335 -0.13698219 -0.4439724 -0.073243424
000230 53 cf 89 bc 9a 1a 8a 3d 86 b9 67 3e d2 99 7d be
       -0.016822493 0.06743355 0.22629365 -0.24765709
000240 da a6 24 bf 13 68 ff 3d 68 2c da be a9 a7 a4 be
       -0.64317095 0.124710225 -0.42612004 -0.32159165
000250 20 f7 f7 be 65 ea bc bd ba f2 96 be 13 7c 22 be
       -0.4843073 -0.09224395 -0.2948206 -0.15867643
000260 81 f1 b8 3d 4c 21 57 3e 2f bc a6 3e dd e3 23 be
       0.09030438 0.21008795 0.32565448 -0.16004892
000270 c8 41 c7 bc 7e fc 16 3e 95 d4 3d 3e 5f 79 0f 3e
       -0.02432336 0.14744756 0.18538125 0.14011143
000280 25 7e 99 3d 2a e9 c0 3e f2 12 07 3e 70 30 5d be
       0.07494763 0.3767789 0.13190821 -0.21600509
000290 bb 54 09 3e f6 4b 35 3e e5 b0 ec 3e 05 5a e9 bc
       0.13411228 0.17704758 0.4622871 -0.028485307
0002a0 94 90 6b be d7 3a b6 3c d4 52 a7 bd 4e 18 1f bd
       -0.23004371 0.022244854 -0.08170095 -0.038841538
0002b0 a9 5c 9b be 56 92 98 3d f4 d2 3a 3e 34 6b 2d 3d
       -0.30344132 0.07449786 0.18244535 0.042338565
0002c0 4a 1a 2e 3e 35 da a8 3d 3d 2d bc bd a4 49 24 be
       0.17002216 0.08244745 -0.09188316 -0.16043717
0002d0 89 a5 60 3e ff d5 fe bc f6 c9 25 3e 9e f3 4d 3c
       0.21938147 -0.0311079 0.16190323 0.01257029
0002e0 08 fb eb 3e 3b 9d a6 be 15 c0 63 be 2f a5 0c be
       0.4608996 -0.32541832 -0.22241242 -0.13734888
0002f0 3e d1 0b be f5 6e 9b 3e be 1b 0c 3f 23 d0 2f bc
       -0.13654038 0.3035809 0.5472983 -0.010730776

bias_hh f4 [192]
000000 ea 7d 08 be dc e6 19 bd aa 3d 49 be f7 47 9f bc
       -0.13329282 -0.03757368 -0.19652429 -0.019443495
000010 71 8e 20 3f 5b f9 2c 3e cc 44 e5 3b 5f 44 1a 3e
       0.6271735 0.16891997 0.0069967266 0.15065144
000020 69 d5 c7 bd 8a 14 b8 be 0d a5 0f bb 15 89 09 be
       -0.09757502 -0.3595317 -0.0021918446 -0.13431199
000030 72 22 92 3d 0a 9a 21 3e fb ff 9d 3d 17 2b 50 be
       0.07135476 0.15781417 0.0771484 -0.20328937
000040 0b d8 1f be 88 85 f9 be ff de 1c bd 68 d1 fe 3d
       -0.15609758 -0.4873469 -0.038298603 0.12442285
000050 75 16 88 be d7 2f 80 be 20 af 3f 3e 7d 70 0d 3e
       -0.26579633 -0.250365 0.18719149 0.13812442
000060 2f 6f 24 b9 10 fe cc bd 8b 89 2b be 57 03 54 3e
       -0.00015681678 -0.10009396 -0.16751687 0.20704399
000070 94 8b 6c 3d ce 57 f7 bd 57 41 ad 3e 48 d4 a1 3e
       0.0577503 -0.12077294 0.33838913 0.3160727
000080 66 5b 9d bd c4 75 81 be 9d 5d aa 3e c7 7b 14 3f
       -0.076834485 -0.2528516 0.33274546 0.5800137
000090 0c c8 c9 bd 75 6d 1b be 8e ba ce 3e b7 d2 f1 3e
       -0.09852609 -0.15178473 0.40376705 0.47231075
0000a0 37 4d 3b 3e 4d 77 0f 3f d0 0d a6 3d db b5 aa bd
       0.18291174 0.56041414 0.08108103 -0.083354674
0000b0 73 c0 d4 bd 82 88 73 3e 5d 36 21 be fb 2a 0a be
       -0.10388269 0.23782542 -0.15743394 -0.13492958
0000c0 83 00 dd bd cd 85 0e 3f 78 c0 d0 3c c4 db 74 3e
       -0.10791113 0.55672914 0.025482401 0.23911959
0000d0 db 57 ff bd c1 ba 94 be 6d 5a 9c 3e fe 35 d0 3d
       -0.12467929 -0.29048732 0.3053774 0.10166548
0000e0 ed 8e ab 3d e5 d7 70 bd bf c8 af bc 52 75 b2 be
       0.0837687 -0.058799643 -0.021458028 -0.34855133
0000f0 48 a2 9f be 93 e4 07 be 57 b3 e4 bd fd 61 80 be
       -0.31178498 -0.13270788 -0.11167019 -0.2507476
000100 cb e7 1b bf e4 d3 81 be 05 6d 44 bf 18 fc ba be
       -0.60900563 -0.25356972 -0.7672885 -0.36520457
000110 0f d0 25 be 5a 86 3b bf 8f 36 2a bf ac b7 28 3f
       -0.1619265 -0.7325188 -0.664895 0.6590526
000120 d6 cf 1b bf 62 12 d5 be dc 55 09 3e fb 44 e4 3c
       -0.6086401 -0.41615587 0.13411659 0.027864924
000130 cb 2f 47 be cd fa 6f bf 6f 35 17 bf b9 13 b9 3e
       -0.19451825 -0.93742067 -0.5906591 0.3614786
000140 47 13 2a be 5e 4b 15 bf 3d 04 0a bf 5b 6c 53 be
       -0.16608916 -0.58318126 -0.5391272 -0.20646803
000150 66 bb 36 bf 6a 7b 12 bf 69 43 2b 3d 22 fc d8 be
       -0.713797 -0.57219565 0.041812334 -0.42379862
000160 dc 31 e3 be cb 7e 19 be 39 96 90 be fd e5 9a be
       -0.44373977 -0.14989774 -0.2823961 -0.30253592
000170 c8 b3 88 be a5 6f 49 bf d1 dc f7 be 73 4c b6 3d
       -0.26699662 -0.7868598 -0.48410657 0.089013
000180 18 7d e9 be 6a e3 62 be 5e d1 5e be c6 d3 a4 3d
       -0.4560325 -0.22157064 -0.21759555 0.08048205
000190 59 c7 89 be d0 25 0a bf 8e 1c c6 be be a2 b4 be
       -0.26909903 -0.5396395 -0.3869366 -0.35280412
0001a0 03 f9 31 bf 8a 02 1a bf 14 fa b3 be 2c 96 fa 3e
       -0.69520587 -0.60160124 -0.35151732 0.48942697
0001b0 e9 1d d9 be 22 66 e7 3e 74 cb 43 bf 02 05 43 bf
       -0.42405632 0.4519511 -0.7648232 -0.76179516
0001c0 91 37 33 bf 81 98 63 bf 9a af 99 be 15 4e 57 be
       -0.7000666 -0.8890458 -0.30016786 -0.2102588
0001d0 38 c1 0b bf 91 ad f0 be 44 47 59 bf 8e 29 67 bf
       -0.54591703 -0.4700742 -0.8487437 -0.9029778
0001e0 d2 f9 24 3d e6 dd 04 ba bb a6 52 be b1 44 33 bf
       0.04027731 -0.0005068466 -0.20571415 -0.7002669
0001f0 b7 05 e9 be 2c 71 b6 be 9e 04 42 bf 2e 03 12 bf
       -0.45512173 -0.35633218 -0.75788295 -0.570361
000200 97 97 f4 be b9 48 ec be 27 f8 90 be 12 15 bb be
       -0.47771904 -0.46149233 -0.28314325 -0.36539513
000210 8e 43 3e bf 9d 9a 3e bf 61 c6 19 bf 8c eb 87 bd
       -0.7432183 -0.7445467 -0.6006833 -0.06636724
000220 37 1c 75 3e 7d b3 da 3e 85 42 31 bf cb 68 58 3e
       0.23936544 0.42715064 -0.69242126 0.21133725
000230 e6 4c 1c bf fa 52 b6 be ca c6 22 bf 4b b0 df bc
       -0.6105484 -0.3561018 -0.6358458 -0.027305743
000240 89 a0 40 3e 66 e4 a1 3e c0 8c 31 3f 07 19 53 bf
       0.1881124 0.31619567 0.6935539 -0.82460064
000250 f0 04 d5 3e 97 a9 a5 3e bf bc 25 bf 66 30 1a 3f
       0.4160533 0.3235595 -0.6474113 0.602301
000260 22 e2 61 be 8e cf d6 be f3 4f 1e 3e 60 d9 db 3e
       -0.22058919 -0.41955227 0.15460186 0.4293928
000270 b2 e7 40 bf 77 dd 00 3e 0b 1f ea be 83 25 1e 3f
       -0.7535354 0.12584482 -0.4572681 0.6177599
000280 6a e5 ac be 02 d0 60 be 53 58 38 bf 62 ef 73 3f
       -0.3376878 -0.21954349 -0.7200977 0.95287144
000290 81 67 d3 bd 38 ee 9a be 5f 11 87 bf d1 11 60 bf
       -0.10322476 -0.3025987 -1.0552176 -0.87527186
0002a0 32 ec 33 3f cf b3 3e 3f 4b 38 4c 3f 11 f7 f0 3c
       0.7028228 0.74493116 0.79773396 0.029414685
0002b0 6d fd e8 3e 54 85 07 3c 23 de 84 bd 59 bd f9 bc
       0.4550585 0.008271534 -0.06487682 -0.030485796
0002c0 ab 9d 01 3e ae a1 57 bf dd 8e 2f 3e ec 26 29 3f
       0.12657802 -0.8423108 0.17144342 0.66075015
0002d0 51 7f df 3e 5d 41 ab be ae a0 08 3f b9 5c 59 3f
       0.43651822 -0.33448306 0.5337018 0.8490711
0002e0 91 36 5b 3e 82 9b 29 3d 11 76 50 3f b6 40 f6 3e
       0.21407534 0.04140807 0.81430155 0.48096246
0002f0 56 ba 81 bd ab 49 cc be b9 83 af be 70 d7 5d 3e
       -0.06334369 -0.39899954 -0.34280184 0.21664214

weight f4 [48, 64]
000000 66 b6 09 bd f0 46 b7 bc 50 b8 09 be 1e 4a 67 3e
       -0.033621214 -0.022372693 -0.13449216 0.22586867
000010 78 22 63 3f fd af c0 3e 5a fd 6d be c9 6b 89 be
       0.8872447 0.37634268 -0.23241177 -0.26840046
000020 d1 82 19 3e a7 a2 0b bd 12 db 6e 3d 88 27 d0 be
       0.14991309 -0.034090664 0.05831439 -0.4065516
000030 11 6c bc 3e 9f e6 22 3e 69 26 6d 3f 13 84 f7 3e
       0.36801198 0.15908287 0.92636734 0.48342952
000040 a9 35 e4 3d 35 56 83 be 59 c4 c9 3b 69 7b 4a 3f
       0.11143047 -0.25651708 0.0061574397 0.7909456
000050 c2 0a c6 bd c5 b1 4c bc 00 ce c6 3e 7b 1a 1c be
       -0.09670021 -0.012493555 0.3882904 -0.15244476
000060 5d b7 d1 3e 3e b9 32 3e 1b 92 9a bd 4c e1 88 be
       0.40960208 0.17453477 -0.07547399 -0.26734388
000070 db 71 5f 3d 6f c0 15 bd bb 50 ed 3e 42 c8 ab be
       0.05455194 -0.036560472 0.46350655 -0.33551222
000080 0d 5a 83 3e d4 04 9d be ab e3 a7 3e 7b f2 57 be
       0.2565464 -0.30667746 0.32790884 -0.21088593
000090 5c 8a 00 3e 6a 9d 34 3f 55 5f 04 3f 1b 62 12 3f
       0.1255278 0.70552695 0.51707965 0.5718095
0000a0 d6 74 5b be 26 1e 46 bf 51 db 94 be b2 c3 73 be
       -0.21431288 -0.7738975 -0.29073575 -0.2380512
0000b0 df a7 49 bd 16 81 fb be 95 df b7 3d 6b 2e 57 3d
       -0.04923236 -0.49121922 0.08978192 0.052534502
0000c0 14 1e b2 3d 78 51 e9 3e 73 ad 83 bd 72 2c d6 bd
       0.08697143 0.45569968 -0.06429567 -0.10457696
0000d0 c3 17 76 be 45 db 46 3e 67 9d ec be 22 21 ac be
       -0.24032502 0.19419582 -0.46213838 -0.33619028
0000e0 76 3f d9 be 3a 35 6a 3c f7 e0 d2 bd 02 a6 2c be
       -0.4243123 0.014294917 -0.10296815 -0.16860202
0000f0 77 84 56 bc 57 fa 08 3e d1 1d 17 bf 09 94 93 3d
       -0.0130931055 0.13376747 -0.5902987 0.0720597
000100 89 b8 23 3f 70 32 6e 3f dc b1 8b 3f 50 91 c3 be
       0.63953453 0.9304571 1.0913653 -0.38196802
000110 41 4b 1d 3f 39 bc 29 be 62 20 16 be 1d ee 43 3e
       0.61442953 -0.16575707 -0.1466079 0.19133802
000120 0c a6 81 be 04 85 2a 3f f7 38 95 3d 9d 9e 09 3c
       -0.25321996 0.66609216 0.07286256 0.008399633
000130 be 96 4e 3e d2 10 08 3f a9 bf 9f 3f 68 5e 8f bd
       0.20174691 0.53150666 1.2480365 -0.070004284
000140 63 82 40 bf 89 e2 5d 3f 65 fa 5d 3e 75 d4 c5 be
       -0.75198954 0.8667379 0.21677549 -0.38638654
000150 34 1a 06 be cc 79 20 3f ad b5 a6 bd 06 4c 82 3e
       -0.13095933 0.6268585 -0.08140121 0.25448626
000160 05 05 53 3f 40 73 66 3f d3 52 cc 3d 43 25 80 bf
       0.82429534 0.9001961 0.09976735 -1.0011371
000170 8e a0 11 bc 0f a5 0c bf da 37 05 bf 19 8d c8 3e
       -0.008888377 -0.5493936 -0.5203835 0.3917015
000180 a7 6a cc 3f 72 48 0a 3e 7c 13 94 be 0c 6f 97 3d
       1.5970048 0.13504198 -0.28921115 0.073942274
000190 76 e4 04 bf a4 eb 2f bf ee 5a b1 be 34 c2 d1 be
       -0.51911104 -0.68718934 -0.34639686 -0.40968478
0001a0 d7 ce 1c 3f 46 e9 2c 3f 16 6a 95 be b5 af c3 3e
       0.6125311 0.67543447 -0.291825 0.3821999
0001b0 f3 dd 92 3e b3 66 d4 3d 18 12 ab 3e ec a7 d5 3e
       0.2868496 0.10371151 0.33412242 0.41729677
0001c0 1b 05 56 3e 38 bc 69 3d 9a b4 25 be 0b d7 94 3f
       0.20900385 0.057064265 -0.16182175 1.1628126
0001d0 d2 32 1f 3f 19 8a 7e bf 48 f4 a4 3e 5b 90 83 3f
       0.6218692 -0.9942947 0.32217622 1.0278429
0001e0 67 da e6 3e 18 0f ee be b8 51 25 3f e6 f5 23 3f
       0.45088503 -0.4649589 0.6457782 0.64047086
0001f0 ef 24 e3 be 93 5a 86 be 8f 32 d7 3c 8f e3 78 bd
       -0.44364116 -0.26240978 0.026269225 -0.06076389
000200 74 76 13 be 2b 18 7a bc 5e 7c 1c 3f 92 e8 30 3e
       -0.14400655 -0.015264551 0.6112727 0.17276219
000210 db b9 4c 3f de 1f 1b bf b2 3a 76 be 00 03 01 3e
       0.7997109 -0.605955 -0.24045828 0.125988
000220 43 cd cb be e1 21 a6 3e ea 04 f2 be b7 cd ae 3e
       -0.3980504 0.32447723 -0.47269374 0.34141323
000230 d6 06 41 bd 6f a8 2b 3d 2c ff c5 be eb 5b 16 be
       -0.04712566 0.041908678 -0.38671243 -0.14683501
000240 fd e0 b0 3e b6 dd 50 3f 88 4f 0a bf 13 d9 04 3f
       0.34546652 0.81588304 -0.54027605 0.5189373
000250 f6 2a d7 3e d6 bd 39 bf c9 d0 34 be e3 e9 da 3e
       0.42024964 -0.7255529 -0.1765777 0.42756566
000260 7f 1d 0b 3f 0e f1 04 3f e9 89 d1 3e c8 08 e8 3e
       0.5434188 0.5193032 0.4092553 0.453192
000270 e3 88 e7 be 79 24 8b bd 80 23 38 3f 44 b1 bb 3d
       -0.45221624 -0.06794066 0.7192917 0.0916467
000280 a7 5f 4e bf 3e dd 51 be 7b 26 c8 3d 4f 81 d9 bd
       -0.80614704 -0.20494553 0.097729646 -0.10620367
000290 98 df 2c 3e e4 76 67 bf 0a cc 3c be 5f 07 bc be
       0.16882169 -0.9041579 -0.1843721 -0.36724374
0002a0 35 b4 c3 3e aa 47 d7 3e d5 16 dd 3e f1 b4 91 be
       0.38223425 0.42046863 0.43181482 -0.2845836
0002b0 bb db 97 be 9f 02 6a bd dd 0a 97 3e ba 8a 09 be
       -0.2965983 -0.057131406 0.29500476 -0.13431826
0002c0 0a 15 0f bf 96 c6 89 be cb 27 58 be 36 39 e3 be
       -0.5589148 -0.26909322 -0.2110893 -0.44379586
0002d0 49 53 84 bd c0 9e 94 3f 14 12 77 be 99 c6 0d be
       -0.06461198 1.1610947 -0.2412799 -0.1384529
0002e0 48 eb c3 3e 11 62 23 3f 41 5c 69 bf 0c 04 de 3d
       0.38265443 0.6382151 -0.91156393 0.10840616
0002f0 92 78 94 bf b6 b9 4b 3e 35 49 d6 be 8a d0 8e bf
       -1.1599295 0.19895062 -0.41852728 -1.1157391
000300 b8 68 f3 3e cb 12 d0 3e 37 e8 ef be 0a 0a 35 3f
       0.47540832 0.40639338 -0.46856853 0.70718443
000310 8c b5 91 be d2 6c 78 bf 8d 73 3a 3f 75 b2 c1 bd
       -0.28458822 -0.97041047 0.72832566 -0.09457866
000320 ad 45 a0 bf bc f8 8d bf 7d e6 95 3e 3e ad 81 3f
       -1.2521263 -1.1091533 0.2927741 1.0130994
000330 12 99 ff 3e 9f ba 84 be 75 70 1d bd 57 9c b4 3d
       0.4992147 -0.2592363 -0.038437326 0.08818882
000340 7e ec 09 be d0 15 ec 3d 6b 75 8a 3e 77 52 24 bf
       -0.13469121 0.11527598 0.27042708 -0.6418833
000350 65 d7 f6 be 30 c5 27 bf ac 88 a0 bd c4 b3 0b bc
       -0.48211208 -0.6553526 -0.07838568 -0.008526746
000360 3c 7e fa 3e 7b d1 cc 3e dc e4 9b 3e 6a 7b 2c 3e
       0.48924434 0.4000357 0.30448043 0.16843954
000370 b0 7d c2 3d f7 7f 05 3e f7 88 1e 3f 98 96 b8 3e
       0.09496629 0.13037096 0.6192774 0.36052394
000380 b5 31 4d bc c6 c3 87 bf 18 9f da 3e 49 9f 29 3f
       -0.012524058 -1.060662 0.42699504 0.66258675
000390 60 16 2c 3f 51 af b6 be 3f 9a fc 3d 5a 19 a7 3e
       0.6722164 -0.3568063 0.123341076 0.3263653
0003a0 8a c8 46 3d 9f 60 69 3e 7d 39 1d 3f f4 81 a7 3e
       0.048531093 0.22790764 0.61415845 0.32716334
0003b0 03 46 0e bf b8 24 5c 3e b3 46 88 3f 10 2a b1 be
       -0.5557558 0.21498382 1.0646576 -0.34602404
0003c0 e3 ed 99 3c a0 a5 d3 3e 9c f3 80 bd cd cf 25 be
       0.018790191 0.413373 -0.06296465 -0.16192551
0003d0 21 b4 28 bf a6 11 3b 3b 0f 5f bb 3e 5f 1d f4 3e
       -0.65899855 0.0028544455 0.3659596 0.47678658
0003e0 eb 25 3c 3e ee eb 3c be 3f 20 81 3e ad 0b 13 bf
       0.1837384 -0.18449375 0.25219914 -0.5743969
0003f0 b7 a6 02 3f 81 85 8e 3e f0 b4 23 3f 69 e5 94 3d
       0.51035637 0.2783623 0.63947964 0.07270319

bias f4 [48]
000000 fd 8c a0 be 98 b1 b2 3d fc 8e 5c bd ba 6a ec 3e
       -0.31357566 0.087252796 -0.053847298 0.46175176
000010 d1 c0 2e bc ca f9 40 3d 92 3f 2d 3e a1 fe 1f 3e
       -0.010666088 0.047113217 0.16918781 0.15624477
000020 17 dd b4 3e e8 2c 8b 3e 20 cc f7 be 1e 89 3a be
       0.35324928 0.27182698 -0.48397923 -0.18216369
000030 0f b3 a4 3e 30 34 a8 be b1 c1 8a bd b8 77 d7 3d
       0.3216786 -0.32852316 -0.06775225 0.105208814
000040 44 61 cd 3e 4b 6e e1 be 90 3f 44 3e d5 3b 9c 3d
       0.4011327 -0.4402946 0.19164872 0.076285996
000050 24 c3 32 3d 7f e0 78 3d 1a 08 96 be 93 a7 ae be
       0.04364313 0.06076097 -0.29303056 -0.34112224
000060 80 0e 91 be 2d 63 e9 bc 5d d3 3d bd d2 8d 61 be
       -0.28331375 -0.028489674 -0.04634415 -0.22026756
000070 d7 7b fb be 56 d3 f4 be 74 59 b2 be 90 2a b9 be
       -0.4911792 -0.47817487 -0.34833872 -0.36165285
000080 d3 f2 6c be 24 91 9d be 92 19 af be 23 d5 49 be
       -0.23139505 -0.30774796 -0.34199196 -0.19710211
000090 dd cb 77 be 37 6e a1 3e 3c 19 06 be a9 25 c4 be
       -0.24198861 0.315294 -0.13095564 -0.38309982
0000a0 c0 5c 14 bf 31 32 cb be bc 49 7a be 4f f6 ae 3e
       -0.57954025 -0.3968673 -0.2444219 0.34172294
0000b0 b2 34 ec be be 58 0d bf 0c 82 e0 be f7 24 8a bf
       -0.46133953 -0.55213535 -0.43849218 -1.0792531
