models/best_LSTM.pt (torch_old, 227087 bytes, 8 tensors)

init_hx f4 [16, 64]
0.0 0.0 0.0 0.0 0.0 0.0 0.0 0.0
0.0 0.0 0.0 0.0 0.0 0.0 0.0 0.0
0.0 0.0 0.0 0.0 0.0 0.0 0.0 0.0
0.0 0.0 0.0 0.0 0.0 0.0 0.0 0.0
0.0 0.0 0.0 0.0 0.0 0.0 0.0 0.0
0.0 0.0 0.0 0.0 0.0 0.0 0.0 0.0
0.0 0.0 0.0 0.0 0.0 0.0 0.0 0.0
0.0 0.0 0.0 0.0 0.0 0.0 0.0 0.0
0.0 0.0 0.0 0.0 0.0 0.0 0.0 0.0
0.0 0.0 0.0 0.0 0.0 0.0 0.0 0.0
0.0 0.0 0.0 0.0 0.0 0.0 0.0 0.0
0.0 0.0 0.0 0.0 0.0 0.0 0.0 0.0
0.0 0.0 0.0 0.0 0.0 0.0 0.0 0.0
0.0 0.0 0.0 0.0 0.0 0.0 0.0 0.0
0.0 0.0 0.0 0.0 0.0 0.0 0.0 0.0
0.0 0.0 0.0 0.0 0.0 0.0 0.0 0.0
0.0 0.0 0.0 0.0 0.0 0.0 0.0 0.0
0.0 0.0 0.0 0.0 0.0 0.0 0.0 0.0
0.0 0.0 0.0 0.0 0.0 0.0 0.0 0.0
0.0 0.0 0.0 0.0 0.0 0.0 0.0 0.0
0.0 0.0 0.0 0.0 0.0 0.0 0.0 0.0
0.0 0.0 0.0 0.0 0.0 0.0 0.0 0.0
0.0 0.0 0.0 0.0 0.0 0.0 0.0 0.0
0.0 0.0 0.0 0.0 0.0 0.0 0.0 0.0
0.0 0.0 0.0 0.0 0.0 0.0 0.0 0.0
0.0 0.0 0.0 0.0 0.0 0.0 0.0 0.0
0.0 0.0 0.0 0.0 0.0 0.0 0.0 0.0
0.0 0.0 0.0 0.0 0.0 0.0 0.0 0.0
0.0 0.0 0.0 0.0 0.0 0.0 0.0 0.0
0.0 0.0 0.0 0.0 0.0 0.0 0.0 0.0
0.0 0.0 0.0 0.0 0.0 0.0 0.0 0.0
0.0 0.0 0.0 0.0 0.0 0.0 0.0 0.0
00000000: 0000 0000 0000 0000 0000 0000 0000 0000
00000010: 0000 0000 0000 0000 0000 0000 0000 0000
00000020: 0000 0000 0000 0000 0000 0000 0000 0000
00000030: 0000 0000 0000 0000 0000 0000 0000 0000
00000040: 0000 0000 0000 0000 0000 0000 0000 0000
00000050: 0000 0000 0000 0000 0000 0000 0000 0000
00000060: 0000 0000 0000 0000 0000 0000 0000 0000
00000070: 0000 0000 0000 0000 0000 0000 0000 0000
00000080: 0000 0000 0000 0000 0000 0000 0000 0000
00000090: 0000 0000 0000 0000 0000 0000 0000 0000
000000a0: 0000 0000 0000 0000 0000 0000 0000 0000
000000b0: 0000 0000 0000 0000 0000 0000 0000 0000
000000c0: 0000 0000 0000 0000 0000 0000 0000 0000
000000d0: 0000 0000 0000 0000 0000 0000 0000 0000
000000e0: 0000 0000 0000 0000 0000 0000 0000 0000
000000f0: 0000 0000 0000 0000 0000 0000 0000 0000
00000100: 0000 0000 0000 0000 0000 0000 0000 0000
00000110: 0000 0000 0000 0000 0000 0000 0000 0000
00000120: 0000 0000 0000 0000 0000 0000 0000 0000
00000130: 0000 0000 0000 0000 0000 0000 0000 0000
00000140: 0000 0000 0000 0000 0000 0000 0000 0000
00000150: 0000 0000 0000 0000 0000 0000 0000 0000
00000160: 0000 0000 0000 0000 0000 0000 0000 0000
00000170: 0000 0000 0000 0000 0000 0000 0000 0000
00000180: 0000 0000 0000 0000 0000 0000 0000 0000
00000190: 0000 0000 0000 0000 0000 0000 0000 0000
000001a0: 0000 0000 0000 0000 0000 0000 0000 0000
000001b0: 0000 0000 0000 0000 0000 0000 0000 0000
000001c0: 0000 0000 0000 0000 0000 0000 0000 0000
000001d0: 0000 0000 0000 0000 0000 0000 0000 0000
000001e0: 0000 0000 0000 0000 0000 0000 0000 0000
000001f0: 0000 0000 0000 0000 0000 0000 0000 0000
00000200: 0000 0000 0000 0000 0000 0000 0000 0000
00000210: 0000 0000 0000 0000 0000 0000 0000 0000
00000220: 0000 0000 0000 0000 0000 0000 0000 0000
00000230: 0000 0000 0000 0000 0000 0000 0000 0000
00000240: 0000 0000 0000 0000 0000 0000 0000 0000
00000250: 0000 0000 0000 0000 0000 0000 0000 0000
00000260: 0000 0000 0000 0000 0000 0000 0000 0000
00000270: 0000 0000 0000 0000 0000 0000 0000 0000
00000280: 0000 0000 0000 0000 0000 0000 0000 0000
00000290: 0000 0000 0000 0000 0000 0000 0000 0000
000002a0: 0000 0000 0000 0000 0000 0000 0000 0000
000002b0: 0000 0000 0000 0000 0000 0000 0000 0000
000002c0: 0000 0000 0000 0000 0000 0000 0000 0000
000002d0: 0000 0000 0000 0000 0000 0000 0000 0000
000002e0: 0000 0000 0000 0000 0000 0000 0000 0000
000002f0: 0000 0000 0000 0000 0000 0000 0000 0000
00000300: 0000 0000 0000 0000 0000 0000 0000 0000
00000310: 0000 0000 0000 0000 0000 0000 0000 0000
00000320: 0000 0000 0000 0000 0000 0000 0000 0000
00000330: 0000 0000 0000 0000 0000 0000 0000 0000
00000340: 0000 0000 0000 0000 0000 0000 0000 0000
00000350: 0000 0000 0000 0000 0000 0000 0000 0000
00000360: 0000 0000 0000 0000 0000 0000 0000 0000
00000370: 0000 0000 0000 0000 0000 0000 0000 0000
00000380: 0000 0000 0000 0000 0000 0000 0000 0000
00000390: 0000 0000 0000 0000 0000 0000 0000 0000
000003a0: 0000 0000 0000 0000 0000 0000 0000 0000
000003b0: 0000 0000 0000 0000 0000 0000 0000 0000
000003c0: 0000 0000 0000 0000 0000 0000 0000 0000
000003d0: 0000 0000 0000 0000 0000 0000 0000 0000
000003e0: 0000 0000 0000 0000 0000 0000 0000 0000
000003f0: 0000 0000 0000 0000 0000 0000 0000 0000

weight_ih f4 [256, 122]
-0.013354173 0.5974409 -0.66437787 -0.2522678 -0.09404579 -0.3376193 -0.11794351 -0.038454972
-0.42553198 0.011171765 0.051211637 -0.19142908 -0.16328898 0.25688243 0.6107725 -0.05396711
0.07298131 0.15540887 -0.8325499 -0.47433192 0.05921322 -0.17107764 0.3843336 -0.16295382
-0.18629426 -0.22453454 0.15799597 -0.0886485 -0.10542808 -0.7124004 0.11494319 0.38925093
0.07849366 0.44092557 -0.06588286 0.1337621 0.10499844 0.039198663 0.0761398 0.07377604
0.007727381 0.11407568 -0.21012092 -0.2847173 -0.44030994 0.30160096 0.071140826 0.26045102
0.061034102 0.32241043 -0.07678522 0.00924508 -0.5633804 -0.21720006 -0.22790249 0.2269326
0.059500244 -0.107308865 -0.25282523 0.0657409 0.48581967 -0.07472868 0.1277885 -0.18868247
0.46335983 -0.015827002 0.16326222 0.16538928 -0.014502556 0.05871833 0.17440547 0.37764153
-0.0024938306 0.013912897 0.5181073 1.3115368 -0.8529905 -0.4651616 0.86181486 -0.08989624
1.9585047 1.3195044 -2.1165795 0.42598003 2.2277856 0.1624441 0.6018124 3.2748826
-0.9453498 3.220211 -1.5967971 0.9693997 1.503298 -0.51329404 2.5160267 1.260438
-1.0111749 0.5093941 -0.08281152 -4.5313206 -0.64170516 -1.6990237 2.0069084 2.1292593
2.1416576 1.553082 1.1180037 -1.1104423 0.25008 0.7867572 -0.53106046 -3.9062624
2.0280976 1.1529062 -0.38231903 -2.2832475 -3.5228775 -1.9507306 -2.0600998 -0.78818744
-0.076270595 0.016818792 0.003561173 -0.10394806 0.20891641 0.23786756 0.46046576 -0.37961167
0.5796041 0.38536665 -0.5051315 -0.25861657 -0.083365746 0.3402219 -0.11812624 -0.028025696
0.14372747 0.19488582 0.07147149 -0.24162036 0.04675953 -0.12245795 -0.14835599 -0.46241397
0.5254382 0.27555567 0.10627822 0.37848258 -0.23026453 0.56094825 0.02144652 -0.33392355
0.1374095 0.2992051 0.13995077 -0.16321765 0.21327934 0.32871884 -0.36451474 -0.011766318
-0.0065391813 0.14817247 0.06305851 0.037669867 -0.18745491 0.30902204 0.12385102 0.0037144022
0.2173212 0.31162167 0.09338916 0.120807394 0.2382489 -0.005455794 0.51462543 -0.57897615
-0.17379802 -0.1342489 -0.12102544 0.25830516 0.18467505 -0.36580023 0.66852725 0.17994782
0.52961224 -0.097536765 -0.26329643 0.16504942 0.1690175 0.5463348 0.31802928 0.30238783
-0.007259019 -0.14417712 0.056984354 0.10082971 1.8549708 1.1605412 -4.054991 -0.41152745
5.0593667 -0.33074862 0.55253005 3.8459284 0.9447973 -0.09117216 -1.2355866 -1.9097445
2.2948146 1.0787975 -0.12527129 0.13514744 0.08686951 4.6686835 -2.3718991 1.8669875
-1.2457125 0.56195253 3.3678634 -2.914882 -2.6789167 1.9558699 3.175702 1.5902733
0.6855935 0.9714202 2.459621 2.8247476 1.8642544 2.220968 2.7925222 2.4724786
3.5033095 0.76760197 -1.185455 -1.8248234 0.26495188 0.19077806 -1.5113844 -2.549013
-0.3437969 -0.6673751 0.029981464 0.0053600073 0.16402619 -0.19434585 0.51681 0.2593754
-0.07444152 0.5182166 -0.49271697 -0.017233547 -0.4267131 -0.4433563 0.29883167 -0.040164694
00000000: 76cb 5abc e3f1 183f ab14 2abf 3f29 81be
00000010: 149b c0bd 70dc acbe 5e8c f1bd f682 1dbd
00000020: 54df d9be c709 373c 4bc3 513d fc05 44be
00000030: 3a35 27be 1886 833e 965b 1c3f 9e0c 5dbd
00000040: 3a77 953d 8123 1f3e fe21 55bf a2db f2be
00000050: 9089 723d fa2e 2fbe 60c7 c43e 5edd 26be
00000060: ecc3 3ebe 62ec 65be b2c9 213e 588d b5bd
00000070: adea d7bd df5f 36bf 5667 eb3d e64b c73e
00000080: 49c1 a03d ffc0 e13e 98ed 86bd eff8 083e
00000090: 6c09 d73d c78e 203d 2fef 9b3d e417 973d
000000a0: f835 fd3b 83a0 e93d f029 57be 77c6 91be
000000b0: 4e70 e1be 716b 9a3e 48b2 913d d659 853e
000000c0: e5fe 793d fb12 a53e 9241 9dbd ad78 173c
000000d0: b339 10bf b169 5ebe 455f 69be 0561 683e
000000e0: 87b6 733d c0c4 dbbd 4f72 81be 2aa3 863d
000000f0: 5bbd f83e 5a0b 99bd fdda 023e fa35 41be
00000100: 803d ed3e a1a7 81bc 362e 273e cf5b 293e
00000110: 219c 6dbc a282 703d 5997 323e 3b5a c13e
00000120: 896f 23bb ebf2 633c aea2 043f 70e0 a73f
00000130: 965d 5abf a929 eebe e69f 5c3f 851b b8bd
00000140: 48b0 fa3f 85e5 a83f 0a76 07c0 0e1a da3e
00000150: 0a94 0e40 bf57 263e 6110 1a3f ad97 5140
00000160: 7202 72bf f017 4e40 d963 ccbf 942a 783f
00000170: 126c c03f 3d67 03bf 9506 2140 0856 a13f
00000180: 2e6e 81bf a767 023f 1699 a9bd 9400 91c0
00000190: ca46 24bf 9c79 d9bf 3071 0040 c945 0840
000001a0: eb10 0940 64cb c63f bf1a 8f3f f922 8ebf
000001b0: 7c0a 803e eb68 493f 94f3 07bf 3400 7ac0
000001c0: 5acc 0140 6e92 933f 52bf c3be ba20 12c0
000001d0: d376 61c0 8ab1 f9bf add8 03c0 a7c6 49bf
000001e0: c233 9cbd 90c7 893c 9262 693b b8e2 d4bd
000001f0: 2fee 553e 8e93 733e 2bc2 eb3e 765c c2be
00000200: ef60 143f c74e c53e 4c50 01bf 6469 84be
00000210: a9bb aabd 9131 ae3e 2cec f1bd 2596 e5bc
00000220: 4b2d 133e 2690 473e a55f 923d 546b 77be
00000230: ec86 3f3d 3ccb fabd a2ea 17be 86c1 ecbe
00000240: 1e83 063f a215 8d3e 65a8 d93d 78c8 c13e
00000250: 77ca 6bbe 4e9a 0f3f 9db0 af3c 07f8 aabe
00000260: 13b5 0c3e 6931 993e 414f 0f3e 8722 27be
00000270: e665 5a3e d64d a83e ada1 babe 84c7 40bc
00000280: a146 d6bb 86ba 173e d224 813d b84b 1a3d
00000290: 2ef4 3fbe 2338 9e3e 9ba5 fd3d 546d 733b
000002a0: 7389 5e3e e08c 9f3e d142 bf3d de69 f73d
000002b0: 85f7 733e 84c6 b2bb 7ebe 033f c837 14bf
000002c0: 1cf8 31be 8b78 09be 30dc f7bd 9340 843e
000002d0: 751b 3d3e 2b4a bbbe 9a24 2b3f 3e44 383e
000002e0: ab94 073f 5bc1 c7bd cace 86be b702 293e
000002f0: ec12 2d3e 99dc 0b3f bcd4 a23e 94d2 9a3e
00000300: 11dd edbb 2ba3 13be 6d68 693d cf7f ce3d
00000310: af6f ed3f 9d8c 943f 7cc2 81c0 bab3 d2be
00000320: 55e6 a140 e257 a9be 9c72 0d3f b123 7640
00000330: 3cde 713f 78b8 babd b427 9ebf 8272 f4bf
00000340: 3ede 1240 0916 8a3f 1e47 00be 1764 0a3e
00000350: a4e8 b13d db65 9540 32cd 17c0 72f9 ee3f
00000360: 8273 9fbf 1fdc 0f3f 138b 5740 6d8d 3ac0
00000370: 5f73 2bc0 f259 fa3f b43e 4b40 138e cb3f
00000380: 0e83 2f3f ffae 783f 6e6a 1d40 aac8 3440
00000390: e39f ee3f 5724 0e40 afb8 3240 173d 1e40
000003a0: 3936 6040 9081 443f fdbc 97bf d093 e9bf
000003b0: c6a7 873e 535b 433e 0b75 c1bf 0723 23c0
000003c0: 2606 b0be 18d9 2abf b09b f53c 00a3 af3b
000003d0: 7bf6 273e 9902 47be a94d 043f dacc 843e
000003e0: cc74 98bd d8a9 043f 6645 fcbe 5e2d 8dbc
000003f0: 247a dabe 99ff e2be 7700 993e bc83 24bd

weight_hh f4 [256, 64]
0.92334723 -0.24386708 -0.34483835 0.8624324 0.13151808 -0.2113655 0.97802836 -0.41342437
-0.31800878 -1.7201738 -0.02273779 -0.35808715 -0.1504232 0.52650195 0.61611605 -0.14498603
-0.24472702 -1.5825863 -0.57962394 0.5060506 0.079508156 -0.15586624 1.1669488 -0.48243678
0.07216854 -0.7496908 -0.8528344 -0.6827353 0.14585225 -0.483508 -0.071631946 -0.8706809
-0.32505956 -0.40342444 0.72190493 0.1294324 0.63201374 0.9353842 -0.20370002 -0.63494086
-0.9159819 0.82857305 -0.6284713 -0.029667174 0.84495854 -0.20866892 -0.5491314 -0.15774079
-1.0230645 0.37780222 0.37951633 0.45330524 -0.9408589 -0.5631697 -1.0731356 -0.0005683086
0.9698666 -2.3071296 -0.32336038 -0.8865397 0.6274639 -0.736639 0.35556132 -0.67298716
0.10048413 -0.33194157 -0.47563577 0.5404029 0.20009534 0.9986617 0.5686573 1.2072809
-2.0392118 -0.08508946 0.96849006 0.0540621 0.099928305 -0.25707045 1.1928482 0.67591804
-0.43563414 -0.22161631 -2.0292645 0.67382616 0.16031857 0.12909581 0.8881605 0.4915682
-0.41356915 0.5366822 -0.1901252 0.9692708 0.9707274 0.57482135 0.13451083 0.50552136
0.24710639 -0.05430172 -0.013977731 -0.47679245 -0.43727908 -0.84922826 1.1064047 -0.12782606
-1.1672533 0.4315447 -0.080943376 1.3556676 1.3767725 -1.0967091 -1.8562523 -0.040088054
0.35841256 -0.027169632 0.9073977 0.49620757 -0.6042958 -0.22035408 -0.59963226 -1.1350816
1.2445976 0.4148158 0.040396243 -0.14068623 0.4484128 0.028418241 0.4528665 1.0215563
-0.20903714 0.116128676 0.30378148 0.6301662 -0.6007847 0.19528913 0.44172657 -0.8435478
-0.91441095 -0.9726804 0.092178695 1.6020657 1.8428605 0.08555497 1.6262579 -0.1251549
-0.4696069 -1.1009893 0.87696934 0.054748714 0.5353384 -0.12327361 -0.8673745 -0.5184458
0.8759381 -0.715472 1.213874 0.5518625 -0.6050852 0.08251798 -0.643021 0.33263028
-0.45510742 -0.23584485 0.652458 0.41235802 -0.66052055 0.5890774 -1.063365 -0.4500993
0.4900936 1.0424054 -0.7560626 0.17896904 -0.8600418 0.90563405 0.12174333 -0.21201433
0.6880394 -0.50851506 0.64478093 0.29652512 0.13345619 0.3146689 -0.1917575 -0.9426127
-0.10662974 1.1019164 -0.59543693 -0.5194891 0.33013612 1.1065315 -0.34835786 -0.9987748
0.27524456 -1.2931168 0.26173896 0.49585614 -1.0396281 0.3226082 -0.16155203 -1.1154143
-0.027634379 -0.75163937 0.5112306 -0.97243595 -0.6586523 -0.42322052 -0.26754344 1.3243108
0.018975232 -0.23771174 -0.6147633 -0.8528432 0.09035185 -0.7542717 0.7251424 -0.48522243
0.22409087 0.52399623 0.0362066 -0.28813007 -0.09737827 -1.1329108 0.9441754 -0.41073835
0.97482276 -0.120582476 -0.0251591 -0.17593291 0.18433207 1.066876 -0.9813142 -0.2621837
-0.9820413 0.8578639 0.3338708 0.38048902 -0.8740072 -0.9777366 0.30573782 -0.90772337
0.34555864 0.4112705 -0.93570876 -0.42601252 -0.5509417 -0.9694482 -0.74042064 1.6890615
-0.030697374 -0.6339111 0.07718114 -0.34886026 1.4474406 0.107641704 -0.050000183 1.3624432
00000000: 7c60 6c3f 4bb8 79be a78e b0be 5fc8 5c3f
00000010: adac 063e 3370 58be 1160 7a3f 5cac d3be
00000020: 0cd2 a2be a82e dcbf 9a44 babc 3357 b7be
00000030: 8a08 1abe d5c8 063f c8b9 1d3f 3877 14be
00000040: b899 7abe 3092 cabf 3c62 14bf 888c 013f
00000050: 2cd5 a23d 669b 1fbe 945e 953f f401 f7be
00000060: 19cd 933d bceb 3fbf 5b53 5abf bec7 2ebf
00000070: 4b5a 153e 5c8e f7be c5b3 92bd f2e4 5ebf
00000080: 356e a6be a68d cebe c3ce 383f ed89 043e
00000090: a7cb 213f 5775 6f3f bd96 50be 7c8b 22bf
000000a0: ca7d 6abf 5d1d 543f 7fe3 20bf 9308 f3bc
000000b0: 344f 583f 4ead 55be e093 0cbf cd86 21be
000000c0: c7f3 82bf 4b6f c13e f74f c23e a017 e83e
000000d0: 21dc 70bf e42b 10bf 825c 89bf 8bfa 14ba
000000e0: 2d49 783f 03a8 13c0 7e8f a5be 44f4 62bf
000000f0: 79a1 203f 6094 3cbf 220c b63e e348 2cbf
00000100: a0ca cd3d 3ff4 a9be 8886 f3be d857 0a3f
00000110: cbe5 4c3e 4ba8 7f3f 8693 113f 2e88 9a3f
00000120: 7282 02c0 6243 aebd f7ee 773f 3870 5d3d
00000130: 36a7 cc3d bd9e 83be 40af 983f f708 2d3f
00000140: 700b dfbe 63ef 62be 78df 01c0 df7f 2c3f
00000150: 8d2a 243e b131 043e 7d5e 633f d4ae fb3e
00000160: 56bf d3be 0164 093f 2eb0 42be 2222 783f
00000170: 9781 783f 7e27 133f 35bd 093e d969 013f
00000180: 7509 7d3e 7b6b 5ebd da02 65bc 241e f4be
00000190: 0be3 dfbe 0667 59bf ab9e 8d3f d6e4 02be
000001a0: 8e68 95bf 6df3 dc3e a4c5 a5bd 8486 ad3f
000001b0: 153a b03f f760 8cbf ad99 edbf 5f33 24bd
000001c0: da81 b73e d992 debc 374b 683f eb0e fe3e
000001d0: 21b3 1abf 80a4 61be 8081 19bf 5b4a 91bf
000001e0: f94e 9f3f bd62 d43e 8876 253d 0d10 10be
000001f0: 5d96 e53e 5fcd e83c 1ede e73e 5bc2 823f
00000200: d50d 56be dfd4 ed3d 3f89 9b3e 9252 213f
00000210: 07cd 19bf e0f9 473e fc29 e23e c0f2 57bf
00000220: d616 6abf 9501 79bf 2fc8 bc3d 7d10 cd3f
00000230: dae2 eb3f 7237 af3d 3829 d03f 9b28 00be
00000240: 5170 f0be 38ed 8cbf 1081 603f 3040 603d
00000250: f00b 093f e076 fcbd 410c 5ebf ddb8 04bf
00000260: 7b3d 603f 2c29 37bf 3960 9b3f dc46 0d3f
00000270: dde6 1abf 30ff a83d 069d 24bf 844e aa3e
00000280: d703 e9be 5081 71be 7d07 273f 9720 d33e
00000290: e017 29bf c7cd 163f 581c 88bf 6a73 e6be
000002a0: 8ced fa3e 8a6d 853f 528d 41bf a943 373e
000002b0: b32b 5cbf a2d7 673f 9154 f93d 491a 59be
000002c0: 5a23 303f 0b2e 02bf 5d10 253f 24d2 973e
000002d0: bda8 083e 481c a13e 145c 44be 114f 71bf
000002e0: b160 dabd 990b 8d3f 8e6e 18bf 3dfd 04bf
000002f0: 9a07 a93e d3a2 8d3f f65b b2be b5af 7fbf
00000300: dbec 8c3e da84 a5bf a602 863e dbe0 fd3e
00000310: 8912 85bf e72c a53e e56d 25be e5c5 8ebf
00000320: 7e61 e2bc 706b 40bf 02e0 023f 90f1 78bf
00000330: 709d 28bf 5cb0 d8be 74fb 88be 0483 a93f
00000340: f271 9b3c b56a 73be 2161 1dbf ef53 5abf
00000350: 640a b93d f317 41bf efa2 393f 136f f8be
00000360: 1478 653e 9e24 063f 5f4d 143d c985 93be
00000370: 426e c7bd 3903 91bf 7bb5 713f 4c4c d2be
00000380: fc8d 793f f2f3 f6bd 751a cebc c227 34be
00000390: 8cc1 3c3e 658f 883f 6837 7bbf f13c 86be
000003a0: 0f67 7bbf f89c 5b3f 1df1 aa3e 75cf c23e
000003b0: f0be 5fbf f24c 7abf ab89 9c3e 8f60 68bf
000003c0: 10ed b03e 0c92 d23e 9c8a 6fbf 501e dabe
000003d0: 840a 0dbf c22d 78bf 358c 3dbf 2b33 d83f
000003e0: 0f79 fbbc ff47 22bf 2511 9e3d d09d b2be
000003f0: bc45 b93f 4173 dc3d fecc 4cbd 8a64 ae3f

bias_ih f4 [256]
0.01935825 0.4113947 0.075789265 0.36256492 0.16326079 0.19151923 0.40490285 0.22459249
0.0020121653 0.0038994697 0.45077488 0.17189687 0.19418329 0.10637881 0.15396994 0.38457304
0.5490997 0.18504032 0.5759736 0.3851488 0.2666005 0.34244293 0.5066404 0.14779294
0.012095833 0.4593106 0.065289125 0.057700425 0.31126085 -0.011011727 0.56567967 0.35288015
0.061699152 0.35159364 0.35410526 -0.06605533 0.26450858 0.19865607 0.0832326 0.15589559
0.31044072 0.20461215 0.12620823 0.10040589 -0.043896034 0.5201245 0.28844666 0.21157587
0.1519516 -0.019369677 -0.020562993 0.43817458 0.086461715 0.05491243 0.12587254 0.25816065
0.030756732 -0.0071906564 0.3792647 0.19277062 0.44414696 -0.018438818 0.14236784 0.009833388
-0.18106791 -0.1810249 0.11975104 -0.14145872 -0.04069535 -0.005678897 0.14257507 0.109313115
-0.05912814 0.043489765 0.114410356 0.2665818 0.26778466 0.09677463 0.09898144 0.06421923
0.21477279 0.0806229 -0.16492547 0.091384955 -0.28079146 0.02422224 -0.3423016 0.026871385
-0.2738065 -0.03976215 0.09188645 0.37531847 0.011103706 0.090100266 -0.03153477 0.2525436
0.0481733 -0.38475633 -0.027462022 -0.2048789 0.26251742 -0.162446 0.23931403 0.029906021
-0.05711215 -0.021663146 -0.042159952 -0.24298565 -0.15296248 -0.4318907 -0.22436756 -0.2117886
-0.12820417 -0.06714132 -0.02353107 -0.30349424 0.11868529 -0.0064437552 0.3445898 0.10778029
0.22691366 -0.3843146 0.042732168 0.24641076 -0.24152032 0.113035284 -0.10089937 -0.2521627
0.19869213 -0.0256582 0.4301293 -0.1808285 0.30174857 0.17770198 0.20337638 0.14843161
-0.1476425 -0.10209331 0.16352166 0.5019997 0.14246793 -0.08368024 0.28684053 0.10615489
-0.2428601 0.11371645 -0.022943605 -0.3628333 0.036367282 -0.5703077 0.094502725 -0.23146293
0.00015410014 -0.07116753 0.12212221 0.3775408 -0.4242577 0.025401583 0.37497506 -0.33923468
0.00976043 0.018681768 -0.22460295 0.016129598 -0.35661128 0.3128325 0.06937163 0.46895912
0.3886339 -0.27129948 0.15807502 0.4525762 0.15588194 0.06737138 -0.015077781 -0.16848552
-0.296878 -0.06162222 0.36457187 0.09997056 -0.35615608 -0.22642082 -0.009793542 0.017084444
0.021596301 0.27534756 -0.1622404 -0.31767246 -0.061622504 -0.018684836 0.23948805 -0.09145249
0.263685 0.3109546 -0.054360595 0.28236774 -0.124722406 -0.22303376 0.16927257 -0.14463723
0.07463905 0.009252485 0.1551463 -0.17773947 -0.1892895 0.12693562 0.031215942 0.36856565
0.075091586 -0.15606649 0.68018764 -0.3100088 0.15658575 0.49555504 1.0109721 0.21266003
0.34566104 0.26794288 -0.1470721 -0.09000356 0.14769925 0.049835745 0.24831545 0.060355015
0.283872 0.20081405 -0.28094387 0.08625877 0.124915205 0.36079338 -0.00065328 0.0007029126
-0.002604195 0.34349814 -0.10888421 0.060457334 0.31672457 0.23371051 0.6710501 0.034121655
-0.008163541 -0.21468997 0.01459753 0.32458913 0.008110104 0.1566549 -0.16725594 0.51947707
0.3247895 0.13360429 -0.02545823 -0.33875617 0.3607121 -0.10373042 0.30721736 -7.1844086e-05
00000000: 3195 9e3c 53a2 d23e 6737 9b3d 1ca2 b93e
00000010: d62d 273e 9e1d 443e 6d4f cf3e 93fb 653e
00000020: 88de 033b 3f8e 7f3b f7cb e63e bc05 303e
00000030: fcd7 463e 22dd d93d 4caa 1d3e c2e6 c43e
00000040: cc91 0c3f 367b 3d3e 0173 133f 3932 c53e
00000050: dc7f 883e ae54 af3e 2fb3 013f 0857 173e
00000060: 9a2d 463c c22a eb3e 4eb6 853d 4857 6c3d
00000070: 955d 9f3e 886a 34bc 62d0 103f b5ac b43e
00000080: 40b8 7c3d 1504 b43e 494d b53e 0448 87bd
00000090: ab6d 873e 7f6c 4b3e da75 aa3d 18a3 1f3e
000000a0: 16f2 9e3e d985 513e bb3c 013e 9aa1 cd3d
000000b0: 54cc 33bd e126 053f 48af 933e 58a7 583e
000000c0: 3399 1b3e 28ad 9ebc b973 a8bc 6b58 e03e
000000d0: d712 b13d dbeb 603d bbe4 003e a22d 843e
000000e0: 8bf5 fb3c 999f ebbb fc2e c23e a965 453e
000000f0: 3b67 e33e 010d 97bc e0c8 113e 381c 213c
00000100: de69 39be 975e 39be 0940 f53d 8eda 10be
00000110: 2bb0 26bd 0a16 babb 33ff 113e 8edf df3d
00000120: 5930 72bd 5322 323d fa4f ea3d 697d 883e
00000130: 121b 893e c731 c63d c8b6 ca3d 5f85 833d
00000140: 66ed 5b3e 9e1d a53d 39e2 28be 0928 bb3d
00000150: e6c3 8fbe b86d c63c 2842 afbe 6121 dc3c
00000160: 5e30 8cbe a3dd 22bd f72e bc3d be29 c03e
00000170: 52ec 353c 7d86 b83d 9a2a 01bd 654d 813e
00000180: 5e51 453d c8fe c4be 09f8 e0bc c6cb 51be
00000190: af68 863e 3f58 26be bd0e 753e 79fd f43c
000001a0: 6eee 69bd e976 b1bc eaaf 2cbd 3bd1 78be
000001b0: 32a2 1cbe c720 ddbe 9cc0 65be 1cdf 58be
000001c0: f447 03be 6381 89bd 3bc4 c0bc 9963 9bbe
000001d0: 4611 f33d 2326 d3bb 136e b03e eabb dc3d
000001e0: 0e5c 683e e2c4 c4be ed07 2f3d 1a53 7c3e
000001f0: 1a51 77be 0b7f e73d 54a4 cebd 781b 81be
00000200: f375 4b3e 2531 d2bc e839 dc3e 1b2b 39be
00000210: ca7e 9a3e 82f7 353e e641 503e 75fe 173e
00000220: 982f 17be 4c16 d1bd 3972 273e 0d83 003f
00000230: 1de3 113e 8c60 abbd c3dc 923e bc67 d93d
00000240: 51b0 78be 2ce4 e83d 3af4 bbbc 49c5 b9be
00000250: dcf5 143d afff 11bf a58a c13d 9e04 6dbe
00000260: f195 2139 48c0 91bd 361b fa3d 074d c13e
00000270: 4e38 d9be fb16 d03c bbfc bf3e 2bb0 adbe
00000280: 36ea 1f3c 820a 993c 51fe 65be 3822 843c
00000290: c195 b6be 952b a03e b712 8e3d 691b f03e
000002a0: 06fb c63e c4e7 8abe 6bde 213e 11b8 e73e
000002b0: 849f 1f3e 02fa 893d cc08 77bc 7887 2cbe
000002c0: 6500 98be 9567 7cbd 2aa9 ba3e 5dbd cc3d
000002d0: 175a b6be dcda 67be 1875 20bc adf4 8b3c
000002e0: baea b03c 5bfa 8c3e 5922 26be f7a5 a2be
000002f0: e167 7cbd f110 99bc 5b3c 753e 714b bbbd
00000300: b801 873e 7135 9f3e 37a9 5ebd 8192 903e
00000310: 766e ffbd f662 64be ca55 2d3e c81b 14be
00000320: 5cdc 983d bc97 173c acde 1e3e 5601 36be
00000330: 1bd5 41be 69fb 013e 93b8 ff3c a3b4 bc3e
00000340: 9ec9 993d e5cf 1fbe c720 2e3f 79b9 9ebe
00000350: 0458 203e 64b9 fd3e 8967 813f 8dc3 593e
00000360: 7cfa b03e cf2f 893e 129a 16be c953 b8bd
00000370: 793e 173e 9120 4c3d 6846 7e3e d236 773d
00000380: ac57 913e 33a2 4d3e e0d7 8fbe 70a8 b03d
00000390: 8bd3 ff3d e9b9 b83e e140 2bba ab43 383a
000003a0: 24ab 2abb fdde af3e affe debd 1ca2 773d
000003b0: b929 a23e cf51 6f3e f0c9 2b3f 26c3 0b3d
000003c0: 5fc0 05bc b0d7 5bbe 7a2a 6f3c 8c30 a63e
000003d0: 3ee0 043c 246a 203e 2445 2bbe 73fc 043f
000003e0: cf4a a63e 90cf 083e c78d d0bc 7371 adbe
000003f0: 42af b83e 9d70 d4bd 984b 9d3e 00ab 96b8

bias_hh f4 [256]
-0.008443497 0.5334946 0.14979504 0.28891468 -0.05021142 0.10834866 0.5126104 0.3399343
0.100609034 0.048778255 0.4458967 0.3281798 0.17283589 0.10269882 0.12710795 0.3709006
0.56023705 0.25502202 0.5081895 0.390688 0.22589903 0.3692616 0.4906197 0.13088726
0.17027964 0.45113268 0.2763033 0.07214999 0.28825188 0.052874688 0.7215001 0.30025885
0.03771737 0.30454034 0.21276729 0.112879835 0.1157934 0.2938157 0.083636716 0.14667484
0.20082918 0.23142451 0.21000075 0.22283469 0.07579596 0.41153935 0.17106228 0.03151644
0.13340189 -0.13311256 -0.026692042 0.38405746 0.27614546 -0.08458437 0.19571489 0.3234704
0.04678302 -0.09096718 0.40736175 0.1687954 0.56767136 0.008916622 0.12271946 0.011452007
-0.3899082 -0.24131112 0.06563114 -0.26153013 0.027182233 0.013685674 0.10299282 0.1361053
-0.033835057 0.046852287 0.12156774 0.101422235 0.18275826 0.005932273 0.19292569 -0.06463951
0.22912416 0.04777308 -0.07326168 0.29451635 -0.094621345 -0.20783395 -0.2560865 0.07386966
-0.2852895 0.037380252 0.015229046 0.41396838 -0.081847064 -0.016765835 0.007421539 0.12559363
0.056349564 -0.302946 0.059505213 -0.22322337 0.2694728 -0.1445093 0.15019804 0.06944987
-0.18327609 0.0061640306 -0.21568532 -0.05722313 0.06437286 -0.38102806 -0.058108814 -0.2005559
0.07457405 0.018614938 0.0659309 -0.26912573 0.014199796 -0.17765024 0.34296867 0.12962937
0.2145824 -0.22587584 -0.069530904 0.18397723 -0.29414356 0.22000684 -0.22361882 -0.101351425
0.005061827 0.17721166 0.2897658 -0.17207058 0.3283829 0.24506779 0.20069094 0.026359063
-0.21029088 0.0172752 0.20990959 0.6002163 0.12099727 -0.04598145 0.09852264 0.13491285
-0.1609114 0.22789437 -0.1610965 -0.40008187 -0.08786971 -0.5212569 0.17048444 -0.17698795
-0.05450405 -0.06905277 0.09271544 0.205988 -0.2777492 -0.113463424 0.2540362 -0.19839013
-0.06887668 -0.12857169 -0.220846 -0.07304617 -0.374981 0.09311295 0.0912962 0.43665612
0.43806902 -0.38812837 0.023235759 0.38838285 0.00091472984 0.08475021 -0.041728336 -0.15230583
-0.2617114 -0.13771656 0.259213 0.10168927 -0.33165044 -0.1293654 -0.158419 -0.10151295
0.23123525 0.045572463 -0.17653695 -0.17468505 0.041677285 0.052655417 0.07185978 -0.12093309
0.2751465 0.5136483 -0.12365163 0.4433108 -0.15504526 -0.0982514 -0.044257935 -0.22442988
0.060604747 -0.012716415 0.13825974 -0.17279106 -0.07942551 0.052017696 -0.17326534 0.43552613
0.0066425884 -0.1070192 0.55112535 -0.08681968 0.053605042 0.29679516 0.8835872 0.15144993
0.20457768 0.2170551 -0.19550303 -0.22495385 0.17386709 -0.17644793 0.29641145 0.283448
0.29043138 0.20239648 -0.3176921 0.21613389 -0.016387602 0.2895048 0.08255061 -0.0656691
0.15711838 0.31559432 -0.16115652 0.10138105 0.21546209 0.38353664 0.6889145 0.19519068
-0.04596753 -0.04986856 0.107483 0.18609178 0.23325355 0.17269437 -0.17648211 0.4726515
0.27353695 0.26564747 0.014117517 -0.2507638 0.37482136 -0.10027336 0.31694674 -0.14263965
00000000: 9856 0abc 1a93 083f df63 193e a0ec 933e
00000010: 7daa 4dbd e7e5 dd3d 6f3a 033f de0b ae3e
00000020: 1c0c ce3d b5cb 473d 924c e43e 2f07 a83e
00000030: e4fb 303e c253 d23d 9628 023e afe6 bd3e
00000040: b26b 0f3f 3f92 823e b518 023f 4208 c83e
00000050: 1352 673e db0f bd3e 8132 fb3e 4f07 063e
00000060: c95d 2e3e ddfa e63e a077 8d3e 60c3 933d
00000070: c095 933e 2193 583d 3bb4 383f 87bb 993e
00000080: 877d 1a3d b6ec 9b3e abdf 593e 8b2d e73d
00000090: 1725 ed3d 036f 963e ba49 ab3d ee31 163e
000000a0: 2aa6 4d3e 8cfa 6c3e 700a 573e c72e 643e
000000b0: ea3a 9b3d 49b5 d23e f32a 2f3e 6217 013d
000000c0: 819a 083e a94e 08be 45a9 dabc 2ea3 c43e
000000d0: f062 8d3e 923a adbd 7c69 483e ea9d a53e
000000e0: 8d9f 3f3d 004d babd b891 d03e b4d8 2c3e
000000f0: e952 113f 0617 123c 5754 fb3d 33a1 3b3c
00000100: 0ca2 c7be 431a 77be 9e69 863d 47e7 85be
00000110: 46ad de3c e139 603c e6ed d23d 305f 0b3e
00000120: a196 0abd 2fe8 3f3d 82f8 f83d 76b6 cf3d
00000130: fb24 3b3e 8363 c23b 508e 453e b861 84bd
00000140: 869f 6a3e b5ad 433d 380a 96bd d9ca 963e
00000150: d6c8 c1bd 6cd2 54be c51d 83be fa48 973d
00000160: 7711 92be 091c 193d 4083 793c aaf3 d33e
00000170: 6f9f a7bd 8158 89bc 6230 f33b 9e9b 003e
00000180: cdce 663d bd1b 9bbe bdbb 733d ab94 64be
00000190: 57f8 893e 3ffa 13be 84cd 193e bc3b 8e3d
000001a0: baac 3bbe a3fb c93b 9ddc 5cbe cd62 6abd
000001b0: ebd5 833d 1c16 c3be 8203 6ebd 875e 4dbe
000001c0: 48ba 983d 5b7e 983c c806 873d d9ca 89be
000001d0: 43a6 683c f2e9 35be 9799 af3e 90bd 043e
000001e0: 7dbb 5b3e ff4b 67be 3866 8ebd 8764 3c3e
000001f0: fc99 96be 7949 613e 55fc 64be 5691 cfbd
00000200: afdd a53b f976 353e 2f5c 943e 4533 30be
00000210: ce21 a83e 0df3 7a3e ed81 4d3e f6ee d73c
00000220: 7e56 57be b884 8d3c 8af2 563e c7a7 193f
00000230: 6bcd f73d 0b57 3cbd 3dc6 c93d 9826 0a3e
00000240: f5c5 24be 245d 693e 7bf6 24be 88d7 ccbe
00000250: 09f5 b3bd 1871 05bf 7993 2e3e 543c 35be
00000260: a43f 5fbd 8a6b 8dbd 98e1 bd3d 85ee 523e
00000270: 2535 8ebe 835f e8bd 0811 823e c826 4bbe
00000280: 380f 8dbd 4ca8 03be 7425 62be 3b99 95bd
00000290: 82fd bfbe 01b2 be3d 81f9 ba3d 6491 df3e
000002a0: 954a e03e c3b8 c6be eb58 be3c 1eda c63e
000002b0: 7bca 6f3a 8591 ad3d 55eb 2abd 0ff6 1bbe
000002c0: 09ff 85be 9205 0dbe 91b7 843e 7742 d03d
000002d0: 16ce a9be 5d78 04be 9738 22be 06e6 cfbd
000002e0: efc8 6c3e 31aa 3a3d 1ac6 34be a3e0 32be
000002f0: cdb5 2a3d 35ad 573d 382b 933d c5ab f7bd
00000300: 01e0 8c3e 747e 033f 113d fdbd a2f9 e23e
00000310: 2fc4 1ebe 0838 c9bd cf47 35bd f2d0 65be
00000320: af3c 783d 8358 50bc f693 0d3e 24f0 30be
00000330: d7a9 a2bd 8210 553d 786c 31be 48fd de3e
00000340: 12aa d93b e22c dbbd 8d16 0d3f 84ce b1bd
00000350: f690 5b3d 89f5 973e c532 623f b115 1b3e
00000360: d07c 513e b143 5e3e f231 48be 4d5a 66be
00000370: 370a 323e c4ae 34be 3ec3 973e 1920 913e
00000380: 6cb3 943e 0641 4f3e 8aa8 a2be 3452 5d3e
00000390: 4b3f 86bc f939 943e 4b10 a93d 857d 86bd
000003a0: a4e3 203e 9495 a13e 3706 25be dea0 cf3d
000003b0: 18a2 5c3e ea5e c43e b35c 303f 11e0 473e
000003c0: 7348 3cbd fa42 4cbd 0c20 dc3d d88e 3e3e
000003d0: 05da 6e3e cbd6 303e bab7 34be 61ff f13e
000003e0: 090d 8c3e f202 883e 284d 673c 1d64 80be
000003f0: 96e8 bf3e 1f5c cdbd d846 a23e 2110 12be

weight f4 [48, 64]
-1.4082526 -0.6380949 -0.20722106 0.5021584 -0.16011152 -0.79079235 -0.48359436 -0.23882551
0.35396183 0.33416554 -0.44727334 -0.26634791 -0.19682238 0.3575472 -0.31505397 -0.8160545
0.5329206 -0.43349236 -0.29711667 0.29805702 -0.21019046 0.7426653 -0.57298976 0.42814285
0.30902243 -0.08924397 -0.3503579 -0.38132045 0.27482736 0.15788984 -0.44028777 0.39104465
0.262206 0.24618988 0.2778326 -0.4479945 0.52318114 -0.5045479 -0.28203177 -0.50154865
-0.26322654 1.2007396 -0.29953983 -0.34862223 -0.144705 -0.8007809 0.74139374 0.4800454
0.2837507 0.38441116 -0.3800957 -0.13935532 0.34746268 0.5234431 0.5795275 -0.12667112
-0.01735011 -0.2940707 0.36472845 0.32487375 -0.21021171 -0.28108746 -0.65797347 0.7913643
0.87189007 -1.1047258 0.88775694 -0.027032306 -0.554676 0.6784952 -0.19625807 -1.4188898
-0.4590191 -0.6640497 0.06306184 0.48683882 -0.4982246 0.3858322 -0.37557232 -0.7163557
0.5384455 2.1288772 0.61382425 -0.8941734 -1.1605961 0.0066417702 0.85110605 -0.71780044
-1.3537964 0.86663884 -0.26374897 0.35372427 -0.7432486 1.1044828 0.20494026 -0.3639224
-0.5583912 0.010954473 -0.0582101 -0.6139449 -0.22105159 -0.15527998 1.4529784 0.49620184
-0.8083821 -0.008700381 1.507128 -1.4358232 0.12497988 -1.0847046 -0.39806926 0.46420124
-0.3716356 -0.27010602 -0.5736286 1.7554264 -1.747712 0.65691084 -0.2846015 0.27737054
-0.23954752 0.7788416 -1.1402028 -0.17821471 0.953281 0.6690655 0.9224423 -0.86918205
0.69051784 1.5194906 0.5919049 0.3779517 -1.2238535 0.23369817 -1.0596328 -1.1365151
0.736236 -0.3022312 -0.3862513 1.5127553 -0.32947308 0.78149575 -0.24758586 0.2919347
0.4045543 -1.0264521 0.7686262 0.6565619 1.0521973 0.7595958 0.4791954 1.1776928
1.2116295 0.3827201 0.28739133 0.648507 0.96137345 0.81968486 0.4663327 0.24326283
0.644048 0.54932785 1.1356505 0.02533964 -1.2523124 -1.6882963 0.9462697 0.59066576
0.7466773 -0.19786882 -0.5362026 0.006904757 1.1013683 0.7751014 0.81999934 -0.33441496
-0.10676463 0.3878158 0.26921856 -0.42831808 -0.6116088 0.72071093 -0.21657886 1.0231787
-0.6076209 -0.5971425 0.18809351 -0.15715404 1.1398084 -0.042294566 0.31282866 -0.79696494
1.4140179 0.13909777 1.3460728 2.5307977 -0.78981405 -1.564611 -0.006002248 -0.22099409
0.012753378 0.114009894 0.70920986 -0.9969736 0.37669134 -0.23875351 0.109059565 0.08580833
-0.80029696 -0.24305475 1.5305386 -0.733094 -0.88544446 0.567997 -0.20834011 0.8999567
-0.027309341 -0.17711091 0.16161673 0.58274823 -0.91163456 -1.1832922 -0.4500333 -1.0014771
1.0991307 0.38130218 0.087335564 -0.07474914 0.39950252 1.3438632 -0.17368942 -0.8921751
0.44214627 -0.030076131 0.6544541 -0.25374112 -0.74527836 0.5744223 1.4617009 0.93183076
0.7140295 0.52476203 0.92467904 -0.3325308 0.7219488 -0.8026723 0.20475446 -0.05048192
-1.2136831 0.026697937 0.48316368 -0.6021978 0.8457258 0.17247644 0.7944817 1.0669957
00000000: 9f41 b4bf 305a 23bf c231 54be 748d 003f
00000010: 46f4 23be 5e71 4abf ae99 f7be ad8e 74be
00000020: 7c3a b53e bf17 ab3e 0301 e5be c15e 88be
00000030: ce8b 49be 6d10 b73e c14e a1be f3e8 50bf
00000040: 7c6d 083f b6f2 ddbe ad1f 98be ee9a 983e
00000050: 2b3c 57be 501f 3e3f 75af 12bf 8a35 db3e
00000060: 3038 9e3e 8bc5 b6bd 1c62 b3be 6f3c c3be
00000070: 2cb6 8c3e e0ad 213e 666d e1be 0137 c83e
00000080: dd3f 863e 3319 7c3e 1340 8e3e 895f e5be
00000090: 33ef 053f 0d2a 01bf 7866 90be 7e65 00bf
000000a0: a1c5 86be d6b1 993f 495d 99be 9d7e b2be
000000b0: 8c2d 14be faff 4cbf fbcb 3d3f 83c8 f53e
000000c0: c647 913e 8ad1 c43e e79b c2be 29b3 0ebe
000000d0: a1e6 b13e 5e00 063f ea5b 143f 13b6 01be
000000e0: d121 8ebc 6f90 96be b0bd ba3e da55 a63e
000000f0: bd41 57be b2ea 8fbe f370 28bf da96 4a3f
00000100: 3034 5f3f a867 8dbf 0a44 633f db72 ddbc
00000110: 3fff 0dbf ddb1 2d3f e0f7 48be 2e9e b5bf
00000120: 8d04 ebbe 29ff 29bf 9126 813d f042 f93e
00000130: 4b17 ffbe cc8b c53e 044b c0be 1663 37bf
00000140: 90d7 093f 863f 0840 9623 1d3f 8ce8 64bf
00000150: 6a8e 94bf 35a3 d93b 16e2 593f c5c1 37bf
00000160: 3349 adbf 0bdc 5d3f 1b0a 87be 591b b53e
00000170: 8a45 3ebf b15f 8d3f dcdb 513e 0954 babe
00000180: baf2 0ebf 647a 333c b76d 6ebd 7e2b 1dbf
00000190: 595b 62be b701 1fbe 32fb b93f 2b0e fe3e
000001a0: 21f2 4ebf 0b8c 0ebc 92e9 c03f 0ec9 b7bf
000001b0: 74f5 ff3d 9ad7 8abf bccf cbbe c9ab ed3e
000001c0: 0547 bebe 564b 8abe 53d9 12bf d0b1 e03f
000001d0: 07b5 dfbf 4f2b 283f 4ab7 91be 8303 8e3e
000001e0: f24b 75be 2a62 473f 2af2 91bf eb7d 36be
000001f0: 390a 743f e047 2b3f 2e25 6c3f b782 5ebf
00000200: c7c5 303f ab7e c23f 1487 173f e382 c13e
00000210: 3ba7 9cbf 934e 6f3e 0ca2 87bf 5479 91bf
00000220: f679 3c3f 0cbe 9abe bbc2 c5be f7a1 c13f
00000230: b2b0 a8be 1b10 483f 2687 7dbe 7778 953e
00000240: be21 cf3e c862 83bf b0c4 443f 7114 283f
00000250: 67ae 863f df74 423f 1959 f53e a3be 963f
00000260: ad16 9b3f e4f3 c33e f524 933e 8e04 263f
00000270: 921c 763f ded6 513f 29c3 ee3e e419 793e
00000280: 54e0 243f c0a0 0c3f ff5c 913f 1495 cf3c
00000290: c64b a0bf 181a d8bf bb3e 723f df35 173f
000002a0: 3e26 3f3f 209e 4abe 9344 09bf 4d41 e23b
000002b0: a3f9 8c3f 0c6d 463f 7aeb 513f 7038 abbe
000002c0: 6aa7 dabd cb8f c63e 04d7 893e 824c dbbe
000002d0: 6592 1cbf 8380 383f d9c6 5dbe 85f7 823f
000002e0: 0b8d 1bbf 55de 18bf 969b 403e fdec 20be
000002f0: 3ee5 913f 113d 2dbd 142b a03e e505 4cbf
00000300: 8afe b43f a56f 0e3e 1d4c ac3f 97f8 2140
00000310: 4131 4abf 2c45 c8bf 81ae c4bb 464c 62be
00000320: 8bf3 503c 057e e93d c78e 353f a939 7fbf
00000330: b0dd c03e cd7b 74be 9f5a df3d 47bc af3d
00000340: 43e0 4cbf 58e3 78be b0e8 c33f 0cac 3bbf
00000350: 7dac 62bf 4068 113f 1c57 55be 9063 663f
00000360: d7b7 dfbc 905c 35be db7e 253e fd2e 153f
00000370: e260 69bf 1e76 97bf c46a e6be 6730 80bf
00000380: 51b0 8c3f 0a3a c33e fddc b23d 1416 99bd
00000390: 988b cc3e b603 ac3f a4db 31be 9665 64bf
000003a0: ff60 e23e 3862 f6bc 4e8a 273f 5bea 81be
000003b0: 90ca 3ebf 570d 133f 0419 bb3f 768c 6e3f
000003c0: a3ca 363f ce56 063f c4b7 6c3f 7a41 aabe
000003d0: a3d1 383f ef7b 4dbf 27ab 513e 21c6 4ebd
000003e0: f859 9bbf a2b5 da3c 3b61 f73e a329 1abf
000003f0: 7c81 583f aa9d 303e 2763 4b3f 5193 883f

bias f4 [48]
-0.52310354 -0.14208788 0.27916932 0.19183998 -0.07827122 0.1177618 0.2517015 -0.26543784
-0.2861625 0.31235862 -0.36703482 0.013774565 0.19386418 -0.25707448 -0.22719863 -0.10468808
0.25312844 -0.09873454 0.13712578 -0.057147637 0.15131424 0.3195022 -0.23961304 0.14091451
-0.34970948 0.018738832 -0.049249284 0.010325247 0.34124556 0.04301281 -0.029417045 -0.20216195
-0.2372978 -0.06966147 -0.045340985 -0.0115543725 0.007585314 0.13929662 0.5803782 -0.14975186
-0.49610248 -0.13848764 0.19993591 0.3692023 -0.45194465 -0.44909132 -0.35613483 -0.5151909
00000000: 1dea 05bf 7c7f 11be 48ef 8e3e b371 443e
00000010: a94c a0bd 192d f13d 05df 803e 78e7 87be
00000020: e483 92be 78ed 9f3e fdeb bbbe b7ae 613c
00000030: 5584 463e 449f 83be c2a6 68be b466 d6bd
00000040: 0d9a 813e 5635 cabd b36a 0c3e a413 6abd
00000050: 1ff2 1a3e cb95 a33e 1f5d 75be e54b 103e
00000060: 1f0d b3be 2e82 993c 9eb9 49bd 3a2b 293c
00000070: bdb7 ae3e 332e 303d 04fc f0bc 8b03 4fbe
00000080: 32fe 72be acaa 8ebd 78b7 39bd 8d4e 3dbc
00000090: 3a8e f83b c6a3 0e3e aa93 143f 8d58 19be
000000a0: 2501 febe b4cf 0dbe 00bc 4c3e 1508 bd3e
000000b0: 4a65 e7be 4cef e5be 4e57 b6be 8de3 03bf

init_cx f4 [16, 64]
0.0 0.0 0.0 0.0 0.0 0.0 0.0 0.0
0.0 0.0 0.0 0.0 0.0 0.0 0.0 0.0
0.0 0.0 0.0 0.0 0.0 0.0 0.0 0.0
0.0 0.0 0.0 0.0 0.0 0.0 0.0 0.0
0.0 0.0 0.0 0.0 0.0 0.0 0.0 0.0
0.0 0.0 0.0 0.0 0.0 0.0 0.0 0.0
0.0 0.0 0.0 0.0 0.0 0.0 0.0 0.0
0.0 0.0 0.0 0.0 0.0 0.0 0.0 0.0
0.0 0.0 0.0 0.0 0.0 0.0 0.0 0.0
0.0 0.0 0.0 0.0 0.0 0.0 0.0 0.0
0.0 0.0 0.0 0.0 0.0 0.0 0.0 0.0
0.0 0.0 0.0 0.0 0.0 0.0 0.0 0.0
0.0 0.0 0.0 0.0 0.0 0.0 0.0 0.0
0.0 0.0 0.0 0.0 0.0 0.0 0.0 0.0
0.0 0.0 0.0 0.0 0.0 0.0 0.0 0.0
0.0 0.0 0.0 0.0 0.0 0.0 0.0 0.0
0.0 0.0 0.0 0.0 0.0 0.0 0.0 0.0
0.0 0.0 0.0 0.0 0.0 0.0 0.0 0.0
0.0 0.0 0.0 0.0 0.0 0.0 0.0 0.0
0.0 0.0 0.0 0.0 0.0 0.0 0.0 0.0
0.0 0.0 0.0 0.0 0.0 0.0 0.0 0.0
0.0 0.0 0.0 0.0 0.0 0.0 0.0 0.0
0.0 0.0 0.0 0.0 0.0 0.0 0.0 0.0
0.0 0.0 0.0 0.0 0.0 0.0 0.0 0.0
0.0 0.0 0.0 0.0 0.0 0.0 0.0 0.0
0.0 0.0 0.0 0.0 0.0 0.0 0.0 0.0
0.0 0.0 0.0 0.0 0.0 0.0 0.0 0.0
0.0 0.0 0.0 0.0 0.0 0.0 0.0 0.0
0.0 0.0 0.0 0.0 0.0 0.0 0.0 0.0
0.0 0.0 0.0 0.0 0.0 0.0 0.0 0.0
0.0 0.0 0.0 0.0 0.0 0.0 0.0 0.0
0.0 0.0 0.0 0.0 0.0 0.0 0.0 0.0
00000000: 0000 0000 0000 0000 0000 0000 0000 0000
00000010: 0000 0000 0000 0000 0000 0000 0000 0000
00000020: 0000 0000 0000 0000 0000 0000 0000 0000
00000030: 0000 0000 0000 0000 0000 0000 0000 0000
00000040: 0000 0000 0000 0000 0000 0000 0000 0000
00000050: 0000 0000 0000 0000 0000 0000 0000 0000
00000060: 0000 0000 0000 0000 0000 0000 0000 0000
00000070: 0000 0000 0000 0000 0000 0000 0000 0000
00000080: 0000 0000 0000 0000 0000 0000 0000 0000
00000090: 0000 0000 0000 0000 0000 0000 0000 0000
000000a0: 0000 0000 0000 0000 0000 0000 0000 0000
000000b0: 0000 0000 0000 0000 0000 0000 0000 0000
000000c0: 0000 0000 0000 0000 0000 0000 0000 0000
000000d0: 0000 0000 0000 0000 0000 0000 0000 0000
000000e0: 0000 0000 0000 0000 0000 0000 0000 0000
000000f0: 0000 0000 0000 0000 0000 0000 0000 0000
00000100: 0000 0000 0000 0000 0000 0000 0000 0000
00000110: 0000 0000 0000 0000 0000 0000 0000 0000
00000120: 0000 0000 0000 0000 0000 0000 0000 0000
00000130: 0000 0000 0000 0000 0000 0000 0000 0000
00000140: 0000 0000 0000 0000 0000 0000 0000 0000
00000150: 0000 0000 0000 0000 0000 0000 0000 0000
00000160: 0000 0000 0000 0000 0000 0000 0000 0000
00000170: 0000 0000 0000 0000 0000 0000 0000 0000
00000180: 0000 0000 0000 0000 0000 0000 0000 0000
00000190: 0000 0000 0000 0000 0000 0000 0000 0000
000001a0: 0000 0000 0000 0000 0000 0000 0000 0000
000001b0: 0000 0000 0000 0000 0000 0000 0000 0000
000001c0: 0000 0000 0000 0000 0000 0000 0000 0000
000001d0: 0000 0000 0000 0000 0000 0000 0000 0000
000001e0: 0000 0000 0000 0000 0000 0000 0000 0000
000001f0: 0000 0000 0000 0000 0000 0000 0000 0000
00000200: 0000 0000 0000 0000 0000 0000 0000 0000
00000210: 0000 0000 0000 0000 0000 0000 0000 0000
00000220: 0000 0000 0000 0000 0000 0000 0000 0000
00000230: 0000 0000 0000 0000 0000 0000 0000 0000
00000240: 0000 0000 0000 0000 0000 0000 0000 0000
00000250: 0000 0000 0000 0000 0000 0000 0000 0000
00000260: 0000 0000 0000 0000 0000 0000 0000 0000
00000270: 0000 0000 0000 0000 0000 0000 0000 0000
00000280: 0000 0000 0000 0000 0000 0000 0000 0000
00000290: 0000 0000 0000 0000 0000 0000 0000 0000
000002a0: 0000 0000 0000 0000 0000 0000 0000 0000
000002b0: 0000 0000 0000 0000 0000 0000 0000 0000
000002c0: 0000 0000 0000 0000 0000 0000 0000 0000
000002d0: 0000 0000 0000 0000 0000 0000 0000 0000
000002e0: 0000 0000 0000 0000 0000 0000 0000 0000
000002f0: 0000 0000 0000 0000 0000 0000 0000 0000
00000300: 0000 0000 0000 0000 0000 0000 0000 0000
00000310: 0000 0000 0000 0000 0000 0000 0000 0000
00000320: 0000 0000 0000 0000 0000 0000 0000 0000
00000330: 0000 0000 0000 0000 0000 0000 0000 0000
00000340: 0000 0000 0000 0000 0000 0000 0000 0000
00000350: 0000 0000 0000 0000 0000 0000 0000 0000
00000360: 0000 0000 0000 0000 0000 0000 0000 0000
00000370: 0000 0000 0000 0000 0000 0000 0000 0000
00000380: 0000 0000 0000 0000 0000 0000 0000 0000
00000390: 0000 0000 0000 0000 0000 0000 0000 0000
000003a0: 0000 0000 0000 0000 0000 0000 0000 0000
000003b0: 0000 0000 0000 0000 0000 0000 0000 0000
000003c0: 0000 0000 0000 0000 0000 0000 0000 0000
000003d0: 0000 0000 0000 0000 0000 0000 0000 0000
000003e0: 0000 0000 0000 0000 0000 0000 0000 0000
000003f0: 0000 0000 0000 0000 0000 0000 0000 0000
