models/GRU_model2_epoch4.pt (torch_old, 79430 bytes, 7 tensors)

init_hx f4 [16, 32]
0.0 0.0 0.0 0.0 0.0 0.0 0.0 0.0
0.0 0.0 0.0 0.0 0.0 0.0 0.0 0.0
0.0 0.0 0.0 0.0 0.0 0.0 0.0 0.0
0.0 0.0 0.0 0.0 0.0 0.0 0.0 0.0
0.0 0.0 0.0 0.0 0.0 0.0 0.0 0.0
0.0 0.0 0.0 0.0 0.0 0.0 0.0 0.0
0.0 0.0 0.0 0.0 0.0 0.0 0.0 0.0
0.0 0.0 0.0 0.0 0.0 0.0 0.0 0.0
0.0 0.0 0.0 0.0 0.0 0.0 0.0 0.0
0.0 0.0 0.0 0.0 0.0 0.0 0.0 0.0
0.0 0.0 0.0 0.0 0.0 0.0 0.0 0.0
0.0 0.0 0.0 0.0 0.0 0.0 0.0 0.0
0.0 0.0 0.0 0.0 0.0 0.0 0.0 0.0
0.0 0.0 0.0 0.0 0.0 0.0 0.0 0.0
0.0 0.0 0.0 0.0 0.0 0.0 0.0 0.0
0.0 0.0 0.0 0.0 0.0 0.0 0.0 0.0
0.0 0.0 0.0 0.0 0.0 0.0 0.0 0.0
0.0 0.0 0.0 0.0 0.0 0.0 0.0 0.0
0.0 0.0 0.0 0.0 0.0 0.0 0.0 0.0
0.0 0.0 0.0 0.0 0.0 0.0 0.0 0.0
0.0 0.0 0.0 0.0 0.0 0.0 0.0 0.0
0.0 0.0 0.0 0.0 0.0 0.0 0.0 0.0
0.0 0.0 0.0 0.0 0.0 0.0 0.0 0.0
0.0 0.0 0.0 0.0 0.0 0.0 0.0 0.0
0.0 0.0 0.0 0.0 0.0 0.0 0.0 0.0
0.0 0.0 0.0 0.0 0.0 0.0 0.0 0.0
0.0 0.0 0.0 0.0 0.0 0.0 0.0 0.0
0.0 0.0 0.0 0.0 0.0 0.0 0.0 0.0
0.0 0.0 0.0 0.0 0.0 0.0 0.0 0.0
0.0 0.0 0.0 0.0 0.0 0.0 0.0 0.0
0.0 0.0 0.0 0.0 0.0 0.0 0.0 0.0
0.0 0.0 0.0 0.0 0.0 0.0 0.0 0.0
00000000: 0000 0000 0000 0000 0000 0000 0000 0000
00000010: 0000 0000 0000 0000 0000 0000 0000 0000
00000020: 0000 0000 0000 0000 0000 0000 0000 0000
00000030: 0000 0000 0000 0000 0000 0000 0000 0000
00000040: 0000 0000 0000 0000 0000 0000 0000 0000
00000050: 0000 0000 0000 0000 0000 0000 0000 0000
00000060: 0000 0000 0000 0000 0000 0000 0000 0000
00000070: 0000 0000 0000 0000 0000 0000 0000 0000
00000080: 0000 0000 0000 0000 0000 0000 0000 0000
00000090: 0000 0000 0000 0000 0000 0000 0000 0000
000000a0: 0000 0000 0000 0000 0000 0000 0000 0000
000000b0: 0000 0000 0000 0000 0000 0000 0000 0000
000000c0: 0000 0000 0000 0000 0000 0000 0000 0000
000000d0: 0000 0000 0000 0000 0000 0000 0000 0000
000000e0: 0000 0000 0000 0000 0000 0000 0000 0000
000000f0: 0000 0000 0000 0000 0000 0000 0000 0000
00000100: 0000 0000 0000 0000 0000 0000 0000 0000
00000110: 0000 0000 0000 0000 0000 0000 0000 0000
00000120: 0000 0000 0000 0000 0000 0000 0000 0000
00000130: 0000 0000 0000 0000 0000 0000 0000 0000
00000140: 0000 0000 0000 0000 0000 0000 0000 0000
00000150: 0000 0000 0000 0000 0000 0000 0000 0000
00000160: 0000 0000 0000 0000 0000 0000 0000 0000
00000170: 0000 0000 0000 0000 0000 0000 0000 0000
00000180: 0000 0000 0000 0000 0000 0000 0000 0000
00000190: 0000 0000 0000 0000 0000 0000 0000 0000
000001a0: 0000 0000 0000 0000 0000 0000 0000 0000
000001b0: 0000 0000 0000 0000 0000 0000 0000 0000
000001c0: 0000 0000 0000 0000 0000 0000 0000 0000
000001d0: 0000 0000 0000 0000 0000 0000 0000 0000
000001e0: 0000 0000 0000 0000 0000 0000 0000 0000
000001f0: 0000 0000 0000 0000 0000 0000 0000 0000
00000200: 0000 0000 0000 0000 0000 0000 0000 0000
00000210: 0000 0000 0000 0000 0000 0000 0000 0000
00000220: 0000 0000 0000 0000 0000 0000 0000 0000
00000230: 0000 0000 0000 0000 0000 0000 0000 0000
00000240: 0000 0000 0000 0000 0000 0000 0000 0000
00000250: 0000 0000 0000 0000 0000 0000 0000 0000
00000260: 0000 0000 0000 0000 0000 0000 0000 0000
00000270: 0000 0000 0000 0000 0000 0000 0000 0000
00000280: 0000 0000 0000 0000 0000 0000 0000 0000
00000290: 0000 0000 0000 0000 0000 0000 0000 0000
000002a0: 0000 0000 0000 0000 0000 0000 0000 0000
000002b0: 0000 0000 0000 0000 0000 0000 0000 0000
000002c0: 0000 0000 0000 0000 0000 0000 0000 0000
000002d0: 0000 0000 0000 0000 0000 0000 0000 0000
000002e0: 0000 0000 0000 0000 0000 0000 0000 0000
000002f0: 0000 0000 0000 0000 0000 0000 0000 0000
00000300: 0000 0000 0000 0000 0000 0000 0000 0000
00000310: 0000 0000 0000 0000 0000 0000 0000 0000
00000320: 0000 0000 0000 0000 0000 0000 0000 0000
00000330: 0000 0000 0000 0000 0000 0000 0000 0000
00000340: 0000 0000 0000 0000 0000 0000 0000 0000
00000350: 0000 0000 0000 0000 0000 0000 0000 0000
00000360: 0000 0000 0000 0000 0000 0000 0000 0000
00000370: 0000 0000 0000 0000 0000 0000 0000 0000
00000380: 0000 0000 0000 0000 0000 0000 0000 0000
00000390: 0000 0000 0000 0000 0000 0000 0000 0000
000003a0: 0000 0000 0000 0000 0000 0000 0000 0000
000003b0: 0000 0000 0000 0000 0000 0000 0000 0000
000003c0: 0000 0000 0000 0000 0000 0000 0000 0000
000003d0: 0000 0000 0000 0000 0000 0000 0000 0000
000003e0: 0000 0000 0000 0000 0000 0000 0000 0000
000003f0: 0000 0000 0000 0000 0000 0000 0000 0000

weight_ih f4 [96, 122]
-0.15604335 -0.15240903 -0.1477008 -0.17587724 0.10854201 -0.056425355 -0.1434164 0.050866783
-0.09593807 -0.1597152 0.16947071 -0.06871367 0.12454207 0.07955994 0.08393051 -0.15803118
0.16934834 0.029554114 0.030925333 0.07344706 -0.050708205 -0.16248271 0.120436594 0.11332591
0.14885648 0.09634836 0.17355408 -0.034270063 -0.088457994 0.112091556 0.08083473 -0.16354425
0.0421333 0.11713798 0.0388335 -0.005163327 -0.12743881 0.058121994 0.048751652 0.17085354
0.1416092 -0.02342996 -0.08676877 0.12721144 -0.050959274 0.17085208 -0.027357757 -0.02621822
-0.094658405 -0.115271546 -0.105191916 0.15108453 0.066774815 -0.12596372 0.13890879 0.029273853
0.075061604 -0.07380579 0.1265393 0.16167624 0.07238753 -0.11910535 0.07639642 -0.16140388
-0.07034482 0.020674422 0.15938435 -0.011396155 0.05314322 0.103273705 -0.121519245 0.10055463
-0.14915568 -0.023406297 0.010350913 0.06293255 0.058193803 -0.06950064 -0.0900715 0.104968354
0.06967679 0.09968062 0.098916784 0.101230666 -0.058384784 0.029794157 -0.06863157 0.13980831
0.023322627 0.1037492 -0.019219324 -0.08223421 0.05906014 -0.12962165 0.01932387 0.0878392
0.07910596 -0.07172323 0.05093831 0.16406651 0.03820218 0.15703665 0.13968529 -0.040158227
-0.17417282 -0.16723616 0.11049925 -0.02292411 -0.11046082 -0.04605694 -0.018578976 -0.12892288
0.111179665 0.061357275 0.13032772 -0.06453599 -0.005101517 -0.04792741 -0.05573725 0.12226324
0.0140954405 0.1485282 -0.14630257 -0.15161645 -0.046992287 0.042634085 -0.07572819 0.07055575
0.03198868 0.13505511 0.043310836 -0.049110904 -0.15407836 -0.051446736 0.045146972 0.13975163
0.078221604 0.07519467 -0.12103763 0.17242278 0.08955298 -0.0016335845 0.12933938 -0.16774432
-0.1514433 -0.1500741 -0.024031773 -0.10032067 0.022357821 -0.021153182 -0.0017727166 0.013133824
0.09915076 -0.086610906 -0.15683398 -0.02114369 0.01257287 0.15446104 0.08020361 -0.07186746
-0.07090845 0.05460696 0.09555505 0.093573555 -0.1216193 0.067706764 0.15560143 0.13483803
-0.15058282 0.025653496 0.106413886 -0.04869996 0.08308567 0.16545774 -0.061596774 -0.12971324
-0.07392846 0.12672783 -0.015975326 0.1141357 -0.09844404 0.15206952 -0.022948176 -0.11422641
-0.11555077 -0.10950387 0.097281024 0.032175794 0.013157085 -0.026450828 -0.07433743 0.019912124
-0.03993751 -0.0009841323 -0.032475308 -0.04554382 -0.16808355 0.1301441 -0.14256881 -0.098087475
-0.013324916 0.12012817 0.08972429 0.12179078 0.10182379 -0.10193525 -0.015360802 -0.04055585
0.1490737 -0.16865422 0.09996201 0.04485324 0.114942804 -0.10293126 0.011138424 0.049666584
0.0069937855 -0.052758016 0.08395149 -0.111888245 -0.1597906 -0.16788259 -0.14171124 0.08304416
-0.048540667 0.08672468 -0.071509354 0.00254862 -0.015735298 0.16113548 0.11637591 -0.15200813
0.10570608 0.14299168 0.1451071 -0.035279423 0.13127409 0.16810228 0.09142889 -0.10131989
0.07928462 0.06820053 0.10346927 0.17193319 0.06425512 0.039075628 -0.1416364 0.14301454
0.05289057 -0.10753513 -0.09994541 0.15554427 0.0866005 -0.04838507 0.07707034 -0.17178746
00000000: d4c9 1fbe 1d11 1cbe e13e 17be 2a19 34be
00000010: 464b de3d 461e 67bd c0db 12be b059 503d
00000020: 2e7b c4bd 628c 23be bb89 2d3e c1b9 8cbd
00000030: ea0f ff3d 52f0 a23d c2e3 ab3d edd2 21be
00000040: a769 2d3e 781b f23c 2057 fd3c 6a6b 963d
00000050: 68b3 4fbd de61 26be 76a7 f63d 6a17 e83d
00000060: d56d 183e 4a52 c53d 29b8 313e c45e 0cbd
00000070: 7729 b5bd 4290 e53d ae8c a53d 2578 27be
00000080: f893 2c3d 0ae6 ef3d e00f 1f3d 2031 a9bb
00000090: 527f 02be 5411 6e3d d0af 473d 3bf4 2e3e
000000a0: 0102 113e 30f0 bfbc d3b3 b1bd b743 023e
000000b0: acba 50bd d9f3 2e3e 601d e0bc 98c7 d6bc
000000c0: 44dc c1bd 7d13 ecbd dc6e d7bd e7b5 1a3e
000000d0: 3cc1 883d a2fc 00be 1b3e 0e3e b8cf ef3c
000000e0: e6b9 993d 7d27 97bd 8593 013e 758e 253e
000000f0: ea3f 943d 81ed f3bd ba75 9c3d 0f47 25be
00000100: f210 90bd 685d a93c a735 233e f0b6 3abc
00000110: b4ac 593d 2a81 d33d 15df f8bd 96ef cd3d
00000120: 44bc 18be 90be bfbc e096 293c c8e2 803d
00000130: a05c 6e3d 5a56 8ebd 6877 b8bd a6f9 d63d
00000140: b4b2 8e3d 5a25 cc3d e294 ca3d 0652 cf3d
00000150: e224 6fbd e012 f43c b58e 8cbd e929 0f3e
00000160: 180f bf3c 767a d43d d871 9dbc 696a a8bd
00000170: 0ce9 713d 8abb 04be 184d 9e3c 0ae5 b33d
00000180: 4e02 a23d a1e3 92bd b0a4 503d 0d01 283e
00000190: e479 1c3d 37ce 203e a909 0f3e f47c 24bd
000001a0: 5c5a 32be f53f 2bbe 6e4d e23d 58cb bbbc
000001b0: 4839 e2bd 34a6 3cbd f032 98bc 5c04 04be
000001c0: 2ab2 e33d c451 7b3d a174 053e 722b 84bd
000001d0: a02a a7bb 884f 44bd be4c 64bd 2665 fa3d
000001e0: 90f0 663c c717 183e 57d0 15be 5841 1bbe
000001f0: fc7a 40bd 14a1 2e3d 6217 9bbd 887f 903d
00000200: 9006 033d e34b 0a3e b466 313d 8428 49bd
00000210: b8c6 1dbe d0b9 52bd 08ec 383d 0d1b 0f3e
00000220: a632 a03d aaff 993d 94e2 f7bd 998f 303e
00000230: 8e67 b73d 001e d6ba 8b71 043e 2bc5 2bbe
00000240: f413 1bbe 06ad 19be 48de c4bc ec74 cdbd
00000250: c027 b73c 7049 adbc 805a e8ba 402f 573c
00000260: 8e0f cb3d 0f61 b1bd 1699 20be 8835 adbc
00000270: 70fe 4d3c 092b 1e3e ca41 a43d 3f2f 93bd
00000280: 7338 91bd 8cab 5f3d 5eb2 c33d 7ea3 bf3d
00000290: 8a13 f9bd d8a9 8a3d fb55 1f3e fb12 0a3e
000002a0: 6232 1abe 4827 d23c 86ef d93d 9c79 47bd
000002b0: d228 aa3d c16d 293e e64c 7cbd 8cd3 04be
000002c0: ce67 97bd f1c4 013e b0de 82bc fabf e93d
000002d0: 079d c9bd 1db8 1b3e d0fd bbbc 89ef e9bd
000002e0: e2a5 ecbd 9143 e0bd 463b c73d c4ca 033d
000002f0: d090 573c 68af d8bc 393e 98bd c01e a33c
00000300: 8495 23bd 00fe 80ba d404 05bd 288c 3abd
00000310: 181e 2cbe 7f44 053e 8ffd 11be 16e2 c8bd
00000320: c050 5abc c205 f63d 5ec1 b73d 726d f93d
00000330: fe88 d03d 6ec3 d0bd e0ab 7bbc e41d 26bd
00000340: c7a6 183e b1b3 2cbe e2b8 cc3d 08b8 373d
00000350: 2267 eb3d a0cd d2bd f07d 363c 306f 4b3d
00000360: 202c e53b ca18 58bd c2ee ab3d aa25 e5bd
00000370: 26a0 23be 6ae9 2bbe c01c 11be 0e13 aa3d
00000380: 94d2 46bd b69c b13d 7f73 92bd c006 273b
00000390: 50e7 80bc b300 253e 7e56 ee3d 05a8 1bbe
000003a0: 6e7c d83d 696c 123e f596 143e 2881 10bd
000003b0: b76c 063e 0123 2c3e 123f bb3d cd80 cfbd
000003c0: fa5f a23d b8ac 8b3d b2e7 d33d 410f 303e
000003d0: 3098 833d c40d 203d 2209 11be 6772 123e
000003e0: c8a3 583d 613b dcbd 2eb0 ccbd ff46 1f3e
000003f0: 9a5b b13d 6c2f 46bd 0ed7 9d3d 0de9 2fbe

weight_hh f4 [96, 32]
-0.019782782 0.15235423 0.020007864 -0.06275093 0.04503177 0.16630669 -0.11008725 0.07503052
-0.0057655573 -0.07404517 0.117828116 -0.1590141 0.09544967 0.054713205 0.08221398 0.037062988
-0.050117686 0.056709304 -0.15779212 -0.035119638 -0.12348211 0.13532524 0.03389336 -0.1278411
0.15887676 -0.16028547 0.12130688 -0.16704562 -0.0799733 -0.072422005 -0.0026432872 0.0896792
0.016094834 0.08365263 0.09210281 0.13687788 -0.01028876 -0.08676169 -0.010475859 0.05135107
0.1384509 0.017784476 -0.037812427 0.00031737983 -0.08507453 0.030803755 0.050086603 0.1316836
0.08590208 0.0016642809 0.04576908 0.056715325 -0.10880346 -0.11271667 0.05101545 0.1488777
0.07625423 0.15762247 0.09744434 -0.097052746 0.044152617 0.105999544 0.08269586 -0.022305906
-0.11203633 -0.008976057 0.043773964 -0.013473079 -0.14603476 0.065490425 -0.042712793 -0.12330798
-0.13234176 -0.002562344 -0.14854723 -0.019448519 -0.119644344 -0.030559346 0.087371066 -0.08852558
0.007267341 0.031509325 -0.08836949 0.04259786 0.16875745 -0.0014549792 -0.07791344 0.13865767
0.04094179 -0.12261604 0.007971421 0.021062315 0.14936952 -0.099655755 0.10190095 -0.011564404
-0.1702728 0.054542452 -0.013359979 0.14794825 -0.019755915 0.09650369 -0.10163482 0.00047063828
0.1699223 0.158379 -0.1690475 0.09378408 -0.1407513 -0.094197154 -0.06880161 -0.10692894
0.017775312 0.12558676 -0.09714646 -0.029967293 0.044433504 -0.0097889155 0.05576016 -0.07356829
-0.10453946 -0.110369064 -0.111285485 0.07233408 0.05975081 -0.13417986 -0.032658875 0.15487643
0.14517738 0.043771088 0.03939061 0.10877405 -0.017875865 0.052277878 -0.048788533 0.03939283
-0.11715239 0.0052528083 0.14206602 0.0030294955 -0.09650994 0.020432428 0.094579205 0.03198977
-0.16127612 0.12877353 -0.04167621 -0.06084591 0.115028754 -0.1767506 -0.06544771 0.049923897
0.06459603 0.010307848 -0.120876566 -0.13237442 0.12483834 0.12877364 -0.15930803 0.053246766
-0.04991062 0.08034147 0.087621495 -0.021644667 -0.009168878 0.1296189 0.15210877 0.008715987
-0.1298187 -0.11568694 0.017504364 -0.11254448 0.08175187 -0.013146445 -0.04736477 -0.13317582
-0.12056285 -0.05334398 0.07690965 -0.00047309697 0.024908766 0.14561085 -0.13366851 -0.071266085
-0.09866061 0.057235062 -0.109886944 -0.13758557 -0.052916586 -0.08141036 0.06550442 -0.1354747
0.035695836 -0.018995032 -0.14011097 -0.15277392 -0.065656506 -0.08616177 0.03114289 -0.15941061
-0.09932564 -0.15860012 -0.14452347 0.039191946 0.13844295 0.043614343 0.061034426 -0.03334917
0.15924679 -0.11504062 -0.06316643 0.16601904 0.11310895 -0.00876382 0.06932691 -0.03460218
-0.0069360584 0.09573503 0.1367697 0.027598873 0.173319 -0.12873432 -0.06896057 -0.099751346
-0.0047639906 0.059466988 -0.13230982 0.010528326 0.16138174 -0.08100538 0.021992773 0.104533955
0.018765256 0.12817623 -0.166304 -0.08068078 0.10540475 0.13036175 -0.079352714 0.15551151
-0.16177832 0.14023446 0.047676668 -0.012897193 -0.07057652 0.09638439 -0.062184893 -0.13557395
-0.029577836 -0.07215051 -0.09135888 -0.018280432 0.09583251 0.09654261 -0.1144795 -0.012906909
00000000: 800f a2bc bf02 1c3e 88e7 a33c 8f83 80bd
00000010: 3c73 383d 4d4c 2a3e 6d75 e1bd 9aa9 993d
00000020: 00ed bcbb fea4 97bd de4f f13d 98d4 22be
00000030: 1e7b c33d f41a 603d ce5f a83d 5ccf 173d
00000040: 3448 4dbd 0448 683d 4294 21be 9cd9 0fbd
00000050: 30e4 fcbd b392 0a3e c4d3 0a3d c7e8 02be
00000060: 97b0 223e e021 24be be6f f83d 020e 2bbe
00000070: 0bc9 a3bd fd51 94bd 003b 2dbb baa9 b73d
00000080: 50d9 833c 1252 ab3d 66a0 bc3d b729 0c3e
00000090: 3092 28bc 1db0 b1bd f0a2 2bbc 8055 523d
000000a0: 13c6 0d3e c0b0 913c 34e1 1abd 0066 a639
000000b0: 8e3b aebd 2858 fc3c 9c27 4d3d 11d8 063e
000000c0: 6eed af3d 0024 da3a 5c78 3b3d 544e 683d
000000d0: 59d4 debd ffd7 e6bd 94f5 503d 6573 183e
000000e0: 2e2b 9c3d c967 213e e690 c73d 97c3 c6bd
000000f0: 60d9 343d 4a16 d93d 725c a93d e0ba b6bc
00000100: 4e73 e5bd 5010 13bc 544c 333d 30be 5cbc
00000110: 238a 15be d81f 863d 9cf3 2ebd e588 fcbd
00000120: 9984 07be 00ed 27bb c41c 18be 8052 9fbc
00000130: 1808 f5bd 9857 fabc 9aef b23d e64c b5bd
00000140: e022 ee3b ec0f 013d 10fb b4bd 187b 2e3d
00000150: c1ce 2c3e 00b5 beba 1591 9fbd 47fc 0d3e
00000160: 94b2 273d 1e1e fbbd 909a 023c e08a ac3c
00000170: 53f4 183e 5118 ccbd 72b1 d03d a078 3dbc
00000180: fe5b 2ebe e867 5f3d d0e3 5abc bf7f 173e
00000190: 28d7 a1bc baa3 c53d eb25 d0bd 00c0 f639
000001a0: 1d00 2e3e 1b2e 223e ca1a 2dbe de11 c03d
000001b0: 1c21 10be 70ea c0bd dce7 8cbd 8ffd dabd
000001c0: 889d 913c d199 003e b9f4 c6bd f87d f5bc
000001d0: e8ff 353d b061 20bc c464 643d f9aa 96bd
000001e0: c918 d6bd 2d09 e2bd a5e9 e3bd e423 943d
000001f0: 44bd 743d 7266 09be 50c5 05bd ed97 1e3e
00000200: 61a9 143e 5049 333d 0c58 213d eec4 de3d
00000210: 6870 92bc 5421 563d 7cd6 47bd 605a 213d
00000220: 98ed efbd c01f ac3b c179 113e 808a 463b
00000230: 01a7 c5bd e861 a73c beb2 c13d b407 033d
00000240: 9125 25be 35dd 033e acb4 2abd 9039 79bd
00000250: 3294 eb3d 1cfe 34be 7309 86bd 007d 4c3d
00000260: ec4a 843d 40e2 283c 228e f7bd 298d 07be
00000270: 3eab ff3d 3ddd 033e a521 23be 4819 5a3d
00000280: 146f 4cbd 128a a43d e672 b33d 2850 b1bc
00000290: 1039 16bc d1ba 043e 67c2 1b3e 80cd 0e3c
000002a0: 31ef 04be 46ed ecbd 5065 8f3c b87d e6bd
000002b0: 866d a73d 3064 57bc 9001 42bd 3e5f 08be
000002c0: a8e9 f6bd 387f 5abd ce82 9d3d 000a f8b9
000002d0: 780d cc3c 031b 153e 66e0 08be f4f3 91bd
000002e0: 930e cabd 506f 6a3d 680c e1bd 3be3 0cbe
000002f0: 10bf 58bd 7aba a6bd 2e27 863d e1b9 0abe
00000300: cc35 123d 789b 9bbc 4079 0fbe c470 1cbe
00000310: eb76 86bd 9575 b0bd 601f ff3c 893c 23be
00000320: 3e6b cbbd 1268 22be f6fd 13be bc87 203d
00000330: fdc3 0d3e f4a4 323d 3cff 793d 2499 08bd
00000340: 9711 233e 6b9a ebbd 675d 81bd e500 2a3e
00000350: aaa5 e73d 2096 0fbc 44fb 8d3d 04bb 0dbd
00000360: e047 e3bb ba10 c43d 5b0d 0c3e 0817 e23c
00000370: 897a 313e eed2 03be 333b 8dbd 6f4a ccbd
00000380: 401b 9cbb a893 733d 3a7c 07be 007f 2c3c
00000390: 4141 253e 26e6 a5bd 302a b43c e615 d63d
000003a0: 98b9 993c a140 033e 994b 2abe f73b a5bd
000003b0: 72de d73d 8d7d 053e ad83 a2bd 693e 1f3e
000003c0: 37a9 25be 9f99 0f3e 9c48 433d c04e 53bc
000003d0: 6c8a 90bd 2e65 c53d 96b5 7ebd e6d3 0abe
000003e0: 384d f2bc a6c3 93bd 5d1a bbbd d8c0 95bc
000003f0: d643 c43d 22b8 c53d 3a74 eabd 8077 53bc

bias_ih f4 [96]
0.12955941 0.10627453 -0.06462054 0.14870189 0.1087416 0.010352492 -0.13785098 0.03638053
0.06787786 -0.14929138 -0.17652024 0.15415047 -0.04082945 -0.05847601 -0.100679144 -0.109866634
-0.006426841 -0.05465702 0.05492744 -0.14650196 -0.14955232 -0.08878225 0.1242411 -0.05844853
-0.09411113 -0.052075908 0.06657076 -0.03271474 -0.12147704 0.05357535 -0.041201845 -0.1692397
0.040576175 0.08454864 -0.12951939 -0.14480379 0.11720209 0.1212119 -0.0033795089 0.004837379
-0.00614959 -0.17111962 -0.15053742 -0.13925709 0.12217422 -0.108532645 0.0617218 -0.10487082
0.08924784 0.12869893 0.09596412 -0.07653448 -0.04074073 -0.14414299 0.01332885 -0.15187241
0.120220706 0.13931243 -0.0769471 0.050723895 0.026643023 0.07405038 -0.07121755 0.019189432
0.08660172 -0.08263172 -0.04824853 -0.13627715 -0.05292116 -0.0028074086 0.0475415 -0.114676625
0.1339928 -0.08917611 -0.00789468 -0.12240933 -0.054463588 0.05983171 -0.051501125 -0.07619607
0.07840459 -0.08980201 -0.07562529 -0.1517596 0.098168835 0.024581388 -0.08949055 0.10358475
-0.09164379 -0.064328566 0.035807103 -0.06680324 0.016676456 0.012991428 0.030379996 0.15372358
00000000: 39ab 043e 76a6 d93d c657 84bd 4f45 183e
00000010: eab3 de3d 809d 293c cf28 0dbe c003 153d
00000020: 8c03 8b3d d7df 18be b9c1 34be 9fd9 1d3e
00000030: c83c 27bd 8a84 6fbd de30 cebd c201 e1bd
00000040: 4098 d2bb 0ae0 5fbd 98fb 603d 9c04 16be
00000050: 3e24 19be 78d3 b5bd 1e72 fe3d ba67 6fbd
00000060: 56bd c0bd 8c4d 55bd 4056 883d e4ff 05bd
00000070: f4c8 f8bd d471 5b3d 44c3 28bd 2c4d 2dbe
00000080: 3433 263d d627 ad3d bba0 04be 7247 14be
00000090: a607 f03d f23d f83d c07a 5dbb e082 9e3b
000000a0: 8082 c9bb fb39 2fbe 7b26 1abe 6999 0ebe
000000b0: 7a36 fa3d 5d46 debd 00d0 7c3d 83c6 d6bd
000000c0: 92c7 b63d a7c9 033e d688 c43d 1cbe 9cbd
000000d0: c0df 26bd 389a 13be 4061 5a3c 7184 1bbe
000000e0: 4636 f63d eba7 0e3e 7196 9dbd dcc3 4f3d
000000f0: 7842 da3c baa7 973d 82da 91bd 2833 9d3c
00000100: 3e5c b13d d23a a9bd 40a0 45bd 3d8c 0bbe
00000110: dcc3 58bd 80fc 37bb e0ba 423d 94db eabd
00000120: 6935 093e f7a1 b6bd b058 01bc beb1 fabd
00000130: 3615 5fbd 1812 753d d8f2 52bd af0c 9cbd
00000140: 9692 a03d 1eea b7bd 6fe1 9abd de66 1bbe
00000150: be0c c93d e85e c93c d246 b7bd 3e24 d43d
00000160: bdaf bbbd b2be 83bd 78aa 123d 23d0 88bd
00000170: 109d 883c 00da 543c 78df f83c b769 1d3e

bias_hh f4 [96]
0.045185313 0.041862547 0.11277513 -0.097320236 0.121861055 -0.047620207 -0.00094400346 -0.020560145
-0.0010579973 0.15780757 -0.029192671 -0.075687855 0.087972656 -0.082569025 -0.016237915 0.03368014
-0.07625962 0.1746173 -0.1691233 0.08110307 -0.040453598 0.089605376 -0.10211996 -0.12234178
-0.032180533 0.012524173 -0.07782687 -0.12094253 0.027212918 0.12882586 -0.11525738 -0.100048125
0.08447303 -0.11880246 0.10142271 -0.11071418 0.14827739 0.11329512 0.017579556 0.01073803
-0.030971274 0.17599638 0.06280407 -0.081201084 0.11323725 0.08824752 0.119317755 -0.14448966
-0.009611592 0.1642612 -0.16655162 0.028678298 0.0160404 0.08310489 -0.13449585 0.17292221
0.17488427 0.1573698 -0.047082007 -0.1478349 0.0053367764 0.17373343 -0.1300296 -0.08432352
0.015895829 0.11701377 -0.13285337 -0.07309953 0.027065426 0.17128457 0.13530411 0.030875921
-0.10106369 -0.16184528 -0.076799735 -0.15417808 0.16598682 -0.14355667 0.060327917 -0.07993898
0.052082524 0.023830488 -0.11316629 0.17135622 -0.014537707 0.07400681 -0.099809386 -0.17592634
-0.15559413 0.16510938 -0.14227168 -0.16878743 0.16042729 0.014246821 -0.14782523 -0.09798613
00000000: 3c14 393d 1078 2b3d a6f6 e63d d54f c7bd
00000010: 4a92 f93d 680d 43bd 0077 77ba c06d a8bc
00000020: 80ac 8aba 4f98 213e 7825 efbc 3c02 9bbd
00000030: 022b b43d f319 a9bd 6005 85bc 30f4 093d
00000040: 012e 9cbd e1ce 323e a92e 2dbe 5e19 a63d
00000050: acb2 25bd 0683 b73d 4524 d1bd 548e fabd
00000060: bccf 03bd 3032 4d3c b263 9fbd b8b0 f7bd
00000070: a0ed de3c edea 033e 100c ecbd 08e6 ccbd
00000080: 3200 ad3d b44e f3bd b6b6 cf3d 1ebe e2bd
00000090: 07d6 173e 4607 e83d 0003 903c 90ee 2f3c
000000a0: 78b7 fdbc 6538 343e 6c9f 803d c14c a6bd
000000b0: eee8 e73d 1ebb b43d de5c f43d 19f5 13be
000000c0: f079 1dbc 1734 283e 828c 2abe c0ee ea3c
000000d0: 2867 833c e632 aa3d 48b9 09be 8512 313e
000000e0: dd14 333e 8d25 213e 10d9 40bd 0862 17be
000000f0: 20e0 ae3b 2de7 313e 7b26 05be cfb1 acbd
00000100: f837 823c eaa4 ef3d b70a 08be 35b5 95bd
00000110: 50b8 dd3c 3965 2f3e 298d 0a3e 80ef fc3c
00000120: 7bfa cebd c5ba 25be 2e49 9dbd dce0 1dbe
00000130: 73f8 293e 8500 13be 681a 773d 0cb7 a3bd
00000140: 7c54 553d 2838 c33c bac3 e7bd 0178 2f3e
00000150: 902f 6ebc e290 973d dd68 ccbd 0926 34be
00000160: 1154 1fbe 6f12 293e abaf 11be 9dd6 2cbe
00000170: 0d47 243e 806b 693c 7f5f 17be f4ac c8bd

weight f4 [48, 32]
-0.07481786 0.069405764 0.01309298 0.063377604 0.049939185 -0.012976825 0.1096908 -0.13868038
-0.025147215 0.1356013 -0.13337657 0.11713858 -0.10264424 -0.13601777 0.032365277 0.1466056
0.0015314668 -0.06876602 0.015837222 -0.040195182 0.08165468 -0.1490784 -0.14977944 -0.075651675
-0.07385658 0.1441644 -0.12101473 0.1253389 0.059361055 0.050860286 0.111307904 -0.018488616
-0.085860886 -0.13539095 -0.0049485713 -0.17263074 -0.036291644 0.062071428 -0.13411279 0.09885059
0.054035082 0.0892234 -0.040795133 -0.15579644 -0.071184486 0.06722315 -0.046544135 0.004897192
0.11370121 -0.17324068 -0.07303855 -0.137117 -0.07750022 -0.1460819 0.08259942 0.025795117
0.07597385 -0.13677055 0.014306888 0.055562377 -0.04413417 -0.10256655 0.11347826 -0.01640302
0.119890496 0.11244331 0.1207961 0.04521425 0.112978324 0.07039228 0.0055689067 0.15583803
-0.041754708 -0.06777055 0.14916281 -0.048863053 -0.056114838 -0.15625992 0.015305087 -0.078154415
0.15360557 0.016607776 -0.14053755 -0.13082781 -0.019754946 0.14833201 -0.14558583 0.09523846
-0.066538915 -0.1611243 -0.0617904 -0.08459045 -0.07844407 0.1374114 -0.06170231 -0.032468945
0.123249635 -0.047812685 0.06296033 -0.022098184 0.13162236 -0.10106553 -0.038194403 0.07166977
0.110291734 0.09410824 -0.09842707 0.0084050745 -0.06283692 -0.14747919 0.016589 0.082004055
0.14158435 0.0491848 -0.16487344 -0.08457861 0.060558125 -0.13850865 0.11248498 -0.07480469
0.005148053 -0.028013423 0.05967012 0.040895596 0.112269536 0.14728971 -0.17283821 -0.1637006
-0.012489229 0.12828903 0.04007177 0.00225991 0.15651117 -0.0014433116 0.0972798 -0.14345312
-0.06581272 0.065163285 -0.061920926 -0.111926876 0.10339673 0.022615999 -0.04193093 0.08730899
0.05023074 0.11300941 0.06623666 -0.03236772 -0.062132016 0.16634546 0.012822151 -0.037658066
-0.07361194 0.11982356 0.014173865 0.1148967 -0.08318694 0.080059454 -0.039344758 -0.07668924
-0.058762424 -0.15232706 0.14801033 -0.06977489 0.12576662 -0.044137046 -0.15587091 0.05198647
0.1144446 -0.14793494 0.093935534 0.11271082 0.12569349 -0.14835504 0.03336829 0.09666534
0.019399598 0.041538358 -0.06528747 -0.01671736 0.07286166 -0.035279125 -0.058202185 0.0482042
0.13176088 0.028694838 0.14196466 0.01156038 -0.024871543 0.06919484 -0.09412807 0.040374905
-0.038058728 0.09834103 -0.083855666 -0.118994415 -0.10461903 -0.15848924 0.03239304 0.018675461
0.06960082 0.081912324 0.012199134 0.009843558 0.03489095 -0.10325228 0.11785503 -0.09895018
-0.057216898 0.15089093 0.13737576 -0.01570195 -0.17249504 -0.0408929 -0.078571945 -0.1512211
0.14288883 0.09030108 -0.11602652 0.16053967 0.025706142 -0.066197775 0.11897199 -0.04744424
0.105750754 -0.04080455 0.0133717805 0.116855875 0.13945179 0.1332409 -0.12091825 0.14726599
-0.12516387 -0.07635997 0.16934998 -0.035832196 0.12999652 0.010742456 0.10490881 -0.046582818
-0.0052372664 -0.06362012 -0.13403496 -0.14146699 -0.101431616 0.17674752 0.10911025 -0.099721886
0.14014418 0.008843392 -0.04534346 0.16632403 -0.029727757 -0.04654278 0.055707663 -0.17293888
00000000: 1b3a 99bd 9c24 8e3d f083 563c 1ecc 813d
00000010: 088d 4c3d c09c 54bc 92a5 e03d 3b02 0ebe
00000020: 8801 cebc 11db 0a3e de93 08be 5ae6 ef3d
00000030: 2537 d2bd 3e48 0bbe 7491 043d c71f 163e
00000040: 80bb c83a 33d5 8cbd 10bd 813c b4a3 24bd
00000050: 923a a73d 02a8 18be c85f 19be 44ef 9abd
00000060: 1e42 97bd d59f 133e 92d6 f7bd d758 003e
00000070: 9424 733d e052 503d 66f5 e33d 7075 97bc
00000080: d5d7 afbd eda3 0abe a027 a2bb 1dc6 30be
00000090: 8ca6 14bd 9c3e 7e3d dd54 09be 2e72 ca3d
000000a0: e453 5d3d c2ba b63d cc18 27bd 1a89 1fbe
000000b0: 2cc9 91bd 4aac 893d 10a5 3ebd a078 a03b
000000c0: 2edc e83d 0166 31be 3c95 95bd 6668 0cbe
000000d0: 6fb8 9ebd 7e96 15be e229 a93d 4850 d33c
000000e0: 2e98 9b3d 940d 0cbe 7067 6a3c 6095 633d
000000f0: 08c6 34bd 690e d2bd 4a67 e83d a05f 86bc
00000100: 2689 f53d ae48 e63d f263 f73d 9432 393d
00000110: 2e61 e73d d429 903d 607b b63b 0194 1f3e
00000120: fc06 2bbd 49cb 8abd 23be 183e a024 48bd
00000130: acd8 65bd 9a02 20be 30c2 7a3c 6c0f a0bd
00000140: c74a 1d3e 080d 883c 13e9 0fbe baf7 05be
00000150: 20d5 a1bc 59e4 173e 7414 15be 620c c33d
00000160: 8e45 88bd c5fd 24be ee17 7dbd c23d adbd
00000170: 49a7 a0bd 93b5 0c3e 90bb 7cbd 28fe 04bd
00000180: 4e6a fc3d 3cd7 43bd 58f1 803d 4007 b5bc
00000190: 03c8 063e 72fb cebd bc71 1cbd 9ac7 923d
000001a0: a2e0 e13d d2bb c03d 2294 c9bd 70b5 093c
000001b0: a5b0 80bd c904 17be a8e5 873c bef1 a73d
000001c0: 7dfb 103e 0076 493d 95d4 28be 8d37 adbd
000001d0: cc0b 783d 36d5 0dbe 865e e63d 3433 99bd
000001e0: 00b1 a83b 687c e5bc a868 743d 2482 273d
000001f0: 92ed e53d 1dd3 163e 80fc 30be 21a1 27be
00000200: a09f 4cbc 335e 033e 4c22 243d 001b 143b
00000210: 7744 203e 802d bdba a23a c73d 60e5 12be
00000220: d2c8 86bd 5474 853d cca0 7dbd eb39 e5bd
00000230: aac1 d33d 3045 b93c c4bf 2bbd 0ecf b23d
00000240: c0be 4d3d 7a71 e73d 16a7 873d 0494 04bd
00000250: 247e 7ebd 7756 2a3e 0014 523c 583f 1abd
00000260: dbc1 96bd 0e66 f53d 8039 683c f64e eb3d
00000270: ea5d aabd 36f6 a33d f827 21bd 400f 9dbd
00000280: deb0 70bd a0fb 1bbe 0590 173e 23e6 8ebd
00000290: f7c8 003e 0cc9 34bd a09c 1fbe c4ef 543d
000002a0: ee61 ea3d 427c 17be 4661 c03d eed4 e63d
000002b0: cbb5 003e 62ea 17be 30ad 083d 7af8 c53d
000002c0: e8eb 9e3c 2024 2a3d 70b5 85bd d8f2 88bc
000002d0: 7e38 953d d880 10bd 6a65 6ebd c471 453d
000002e0: 53ec 063e 7011 eb3c 2f5f 113e c067 3d3c
000002f0: 68bf cbbc 06b6 8d3d 38c6 c0bd 2860 253d
00000300: 78e3 1bbd 0667 c93d 85bc abbd 58b3 f3bd
00000310: 8142 d6bd 014b 22be 90ae 043d 48fd 983c
00000320: e08a 8e3d a6c1 a73d e0de 473c e046 213c
00000330: d0e9 0e3d ee75 d3bd fa5d f13d 64a6 cabd
00000340: 445c 6abd 2783 1a3e 3bac 0c3e 60a1 80bc
00000350: 8aa2 30be 507f 27bd 54ea a0bd b4d9 1abe
00000360: 7351 123e c6ef b83d 509f edbd 8364 243e
00000370: b095 d23c b392 87bd 96a7 f33d e454 42bd
00000380: da93 d83d ac22 27bd 5015 5b3c 2252 ef3d
00000390: 73cc 0e3e 4d70 083e fda3 f7bd e5cc 163e
000003a0: f52a 00be 9e62 9cbd 156a 2d3e c8c4 12bd
000003b0: cf1d 053e 2001 303c 6eda d63d a0cd 3ebd
000003c0: 609d abbb 444b 82bd 7640 09be b9dc 10be
000003d0: 61bb cfbd 4dfd 343e 3275 df3d fd3a ccbd
000003e0: f581 0f3e e0e3 103c 10ba 39bd d950 2a3e
000003f0: a087 f3bc a4a3 3ebd b82d 643d e416 31be

bias f4 [48]
-0.057484843 -0.0465921 0.11775817 -0.13792674 -0.13802098 0.17633118 -0.10142007 -0.024042606
0.11814131 -0.083078496 0.13571914 0.040151954 0.16642539 -0.034552306 -0.16804774 0.0313818
-0.106848836 0.15407841 -0.05889076 -0.15201409 0.11167063 -0.13545047 0.08936511 0.10610725
0.02116014 0.10921152 0.0019838363 0.0853876 -0.14052355 0.112911835 -0.13423526 -0.14746173
0.024648294 -0.1584084 0.1760876 0.15095781 -0.14040399 0.10808204 0.08054148 0.10118689
-0.020900741 -0.10204788 0.16529383 0.11508991 -0.16500777 0.13813968 0.054035738 0.074315295
00000000: 3a75 6bbd 5cd7 3ebd 322b f13d ab3c 0dbe
00000010: 5f55 0dbe 2990 343e 53b5 cfbd 00f5 c4bc
00000020: 12f4 f13d 0f25 aabd f5f9 0a3e 6076 243d
00000030: 6b6b 2a3e b886 0dbd b514 2cbe 348a 003d
00000040: 90d3 dabd bbc6 1d3e 7037 71bd 95a9 1bbe
00000050: 92b3 e43d 87b3 0abe 0e05 b73d c24e d93d
00000060: 0858 ad3c 4aaa df3d 4003 023b b2df ae3d
00000070: 68e5 0fbe 523e e73d f874 09be 3500 17be
00000080: 38eb c93c d035 22be 4f50 343e af94 1a3e
00000090: 10c6 0fbe 1e5a dd3d eef2 a43d 123b cf3d
000000a0: 0838 abbc 7bfe d0bd c942 293e 42b4 eb3d
000000b0: ccf7 28be 7d74 0d3e 9454 5d3d 9e32 983d
