models/LSTM_model2_epoch15.pt (torch_old, 104227 bytes, 8 tensors)

init_hx f4 [16, 32]
00000000: 0000 0000 0000 0000 0000 0000 0000 0000
00000010: 0000 0000 0000 0000 0000 0000 0000 0000
00000020: 0000 0000 0000 0000 0000 0000 0000 0000
00000030: 0000 0000 0000 0000 0000 0000 0000 0000
00000040: 0000 0000 0000 0000 0000 0000 0000 0000
00000050: 0000 0000 0000 0000 0000 0000 0000 0000
00000060: 0000 0000 0000 0000 0000 0000 0000 0000
00000070: 0000 0000 0000 0000 0000 0000 0000 0000
00000080: 0000 0000 0000 0000 0000 0000 0000 0000
00000090: 0000 0000 0000 0000 0000 0000 0000 0000
000000a0: 0000 0000 0000 0000 0000 0000 0000 0000
000000b0: 0000 0000 0000 0000 0000 0000 0000 0000
000000c0: 0000 0000 0000 0000 0000 0000 0000 0000
000000d0: 0000 0000 0000 0000 0000 0000 0000 0000
000000e0: 0000 0000 0000 0000 0000 0000 0000 0000
000000f0: 0000 0000 0000 0000 0000 0000 0000 0000
00000100: 0000 0000 0000 0000 0000 0000 0000 0000
00000110: 0000 0000 0000 0000 0000 0000 0000 0000
00000120: 0000 0000 0000 0000 0000 0000 0000 0000
00000130: 0000 0000 0000 0000 0000 0000 0000 0000
00000140: 0000 0000 0000 0000 0000 0000 0000 0000
00000150: 0000 0000 0000 0000 0000 0000 0000 0000
00000160: 0000 0000 0000 0000 0000 0000 0000 0000
00000170: 0000 0000 0000 0000 0000 0000 0000 0000
00000180: 0000 0000 0000 0000 0000 0000 0000 0000
00000190: 0000 0000 0000 0000 0000 0000 0000 0000
000001a0: 0000 0000 0000 0000 0000 0000 0000 0000
000001b0: 0000 0000 0000 0000 0000 0000 0000 0000
000001c0: 0000 0000 0000 0000 0000 0000 0000 0000
000001d0: 0000 0000 0000 0000 0000 0000 0000 0000
000001e0: 0000 0000 0000 0000 0000 0000 0000 0000
000001f0: 0000 0000 0000 0000 0000 0000 0000 0000
00000200: 0000 0000 0000 0000 0000 0000 0000 0000
00000210: 0000 0000 0000 0000 0000 0000 0000 0000
00000220: 0000 0000 0000 0000 0000 0000 0000 0000
00000230: 0000 0000 0000 0000 0000 0000 0000 0000
00000240: 0000 0000 0000 0000 0000 0000 0000 0000
00000250: 0000 0000 0000 0000 0000 0000 0000 0000
00000260: 0000 0000 0000 0000 0000 0000 0000 0000
00000270: 0000 0000 0000 0000 0000 0000 0000 0000
00000280: 0000 0000 0000 0000 0000 0000 0000 0000
00000290: 0000 0000 0000 0000 0000 0000 0000 0000
000002a0: 0000 0000 0000 0000 0000 0000 0000 0000
000002b0: 0000 0000 0000 0000 0000 0000 0000 0000
000002c0: 0000 0000 0000 0000 0000 0000 0000 0000
000002d0: 0000 0000 0000 0000 0000 0000 0000 0000
000002e0: 0000 0000 0000 0000 0000 0000 0000 0000
000002f0: 0000 0000 0000 0000 0000 0000 0000 0000
00000300: 0000 0000 0000 0000 0000 0000 0000 0000
00000310: 0000 0000 0000 0000 0000 0000 0000 0000
00000320: 0000 0000 0000 0000 0000 0000 0000 0000
00000330: 0000 0000 0000 0000 0000 0000 0000 0000
00000340: 0000 0000 0000 0000 0000 0000 0000 0000
00000350: 0000 0000 0000 0000 0000 0000 0000 0000
00000360: 0000 0000 0000 0000 0000 0000 0000 0000
00000370: 0000 0000 0000 0000 0000 0000 0000 0000
00000380: 0000 0000 0000 0000 0000 0000 0000 0000
00000390: 0000 0000 0000 0000 0000 0000 0000 0000
000003a0: 0000 0000 0000 0000 0000 0000 0000 0000
000003b0: 0000 0000 0000 0000 0000 0000 0000 0000
000003c0: 0000 0000 0000 0000 0000 0000 0000 0000
000003d0: 0000 0000 0000 0000 0000 0000 0000 0000
000003e0: 0000 0000 0000 0000 0000 0000 0000 0000
000003f0: 0000 0000 0000 0000 0000 0000 0000 0000
0.0 0.0 0.0 0.0 0.0 0.0 0.0 0.0
0.0 0.0 0.0 0.0 0.0 0.0 0.0 0.0
0.0 0.0 0.0 0.0 0.0 0.0 0.0 0.0
0.0 0.0 0.0 0.0 0.0 0.0 0.0 0.0
0.0 0.0 0.0 0.0 0.0 0.0 0.0 0.0
0.0 0.0 0.0 0.0 0.0 0.0 0.0 0.0
0.0 0.0 0.0 0.0 0.0 0.0 0.0 0.0
0.0 0.0 0.0 0.0 0.0 0.0 0.0 0.0
0.0 0.0 0.0 0.0 0.0 0.0 0.0 0.0
0.0 0.0 0.0 0.0 0.0 0.0 0.0 0.0
0.0 0.0 0.0 0.0 0.0 0.0 0.0 0.0
0.0 0.0 0.0 0.0 0.0 0.0 0.0 0.0
0.0 0.0 0.0 0.0 0.0 0.0 0.0 0.0
0.0 0.0 0.0 0.0 0.0 0.0 0.0 0.0
0.0 0.0 0.0 0.0 0.0 0.0 0.0 0.0
0.0 0.0 0.0 0.0 0.0 0.0 0.0 0.0
0.0 0.0 0.0 0.0 0.0 0.0 0.0 0.0
0.0 0.0 0.0 0.0 0.0 0.0 0.0 0.0
0.0 0.0 0.0 0.0 0.0 0.0 0.0 0.0
0.0 0.0 0.0 0.0 0.0 0.0 0.0 0.0
0.0 0.0 0.0 0.0 0.0 0.0 0.0 0.0
0.0 0.0 0.0 0.0 0.0 0.0 0.0 0.0
0.0 0.0 0.0 0.0 0.0 0.0 0.0 0.0
0.0 0.0 0.0 0.0 0.0 0.0 0.0 0.0
0.0 0.0 0.0 0.0 0.0 0.0 0.0 0.0
0.0 0.0 0.0 0.0 0.0 0.0 0.0 0.0
0.0 0.0 0.0 0.0 0.0 0.0 0.0 0.0
0.0 0.0 0.0 0.0 0.0 0.0 0.0 0.0
0.0 0.0 0.0 0.0 0.0 0.0 0.0 0.0
0.0 0.0 0.0 0.0 0.0 0.0 0.0 0.0
0.0 0.0 0.0 0.0 0.0 0.0 0.0 0.0
0.0 0.0 0.0 0.0 0.0 0.0 0.0 0.0

init_cx f4 [16, 32]
00000000: 0000 0000 0000 0000 0000 0000 0000 0000
00000010: 0000 0000 0000 0000 0000 0000 0000 0000
00000020: 0000 0000 0000 0000 0000 0000 0000 0000
00000030: 0000 0000 0000 0000 0000 0000 0000 0000
00000040: 0000 0000 0000 0000 0000 0000 0000 0000
00000050: 0000 0000 0000 0000 0000 0000 0000 0000
00000060: 0000 0000 0000 0000 0000 0000 0000 0000
00000070: 0000 0000 0000 0000 0000 0000 0000 0000
00000080: 0000 0000 0000 0000 0000 0000 0000 0000
00000090: 0000 0000 0000 0000 0000 0000 0000 0000
000000a0: 0000 0000 0000 0000 0000 0000 0000 0000
000000b0: 0000 0000 0000 0000 0000 0000 0000 0000
000000c0: 0000 0000 0000 0000 0000 0000 0000 0000
000000d0: 0000 0000 0000 0000 0000 0000 0000 0000
000000e0: 0000 0000 0000 0000 0000 0000 0000 0000
000000f0: 0000 0000 0000 0000 0000 0000 0000 0000
00000100: 0000 0000 0000 0000 0000 0000 0000 0000
00000110: 0000 0000 0000 0000 0000 0000 0000 0000
00000120: 0000 0000 0000 0000 0000 0000 0000 0000
00000130: 0000 0000 0000 0000 0000 0000 0000 0000
00000140: 0000 0000 0000 0000 0000 0000 0000 0000
00000150: 0000 0000 0000 0000 0000 0000 0000 0000
00000160: 0000 0000 0000 0000 0000 0000 0000 0000
00000170: 0000 0000 0000 0000 0000 0000 0000 0000
00000180: 0000 0000 0000 0000 0000 0000 0000 0000
00000190: 0000 0000 0000 0000 0000 0000 0000 0000
000001a0: 0000 0000 0000 0000 0000 0000 0000 0000
000001b0: 0000 0000 0000 0000 0000 0000 0000 0000
000001c0: 0000 0000 0000 0000 0000 0000 0000 0000
000001d0: 0000 0000 0000 0000 0000 0000 0000 0000
000001e0: 0000 0000 0000 0000 0000 0000 0000 0000
000001f0: 0000 0000 0000 0000 0000 0000 0000 0000
00000200: 0000 0000 0000 0000 0000 0000 0000 0000
00000210: 0000 0000 0000 0000 0000 0000 0000 0000
00000220: 0000 0000 0000 0000 0000 0000 0000 0000
00000230: 0000 0000 0000 0000 0000 0000 0000 0000
00000240: 0000 0000 0000 0000 0000 0000 0000 0000
00000250: 0000 0000 0000 0000 0000 0000 0000 0000
00000260: 0000 0000 0000 0000 0000 0000 0000 0000
00000270: 0000 0000 0000 0000 0000 0000 0000 0000
00000280: 0000 0000 0000 0000 0000 0000 0000 0000
00000290: 0000 0000 0000 0000 0000 0000 0000 0000
000002a0: 0000 0000 0000 0000 0000 0000 0000 0000
000002b0: 0000 0000 0000 0000 0000 0000 0000 0000
000002c0: 0000 0000 0000 0000 0000 0000 0000 0000
000002d0: 0000 0000 0000 0000 0000 0000 0000 0000
000002e0: 0000 0000 0000 0000 0000 0000 0000 0000
000002f0: 0000 0000 0000 0000 0000 0000 0000 0000
00000300: 0000 0000 0000 0000 0000 0000 0000 0000
00000310: 0000 0000 0000 0000 0000 0000 0000 0000
00000320: 0000 0000 0000 0000 0000 0000 0000 0000
00000330: 0000 0000 0000 0000 0000 0000 0000 0000
00000340: 0000 0000 0000 0000 0000 0000 0000 0000
00000350: 0000 0000 0000 0000 0000 0000 0000 0000
00000360: 0000 0000 0000 0000 0000 0000 0000 0000
00000370: 0000 0000 0000 0000 0000 0000 0000 0000
00000380: 0000 0000 0000 0000 0000 0000 0000 0000
00000390: 0000 0000 0000 0000 0000 0000 0000 0000
000003a0: 0000 0000 0000 0000 0000 0000 0000 0000
000003b0: 0000 0000 0000 0000 0000 0000 0000 0000
000003c0: 0000 0000 0000 0000 0000 0000 0000 0000
000003d0: 0000 0000 0000 0000 0000 0000 0000 0000
000003e0: 0000 0000 0000 0000 0000 0000 0000 0000
000003f0: 0000 0000 0000 0000 0000 0000 0000 0000
0.0 0.0 0.0 0.0 0.0 0.0 0.0 0.0
0.0 0.0 0.0 0.0 0.0 0.0 0.0 0.0
0.0 0.0 0.0 0.0 0.0 0.0 0.0 0.0
0.0 0.0 0.0 0.0 0.0 0.0 0.0 0.0
0.0 0.0 0.0 0.0 0.0 0.0 0.0 0.0
0.0 0.0 0.0 0.0 0.0 0.0 0.0 0.0
0.0 0.0 0.0 0.0 0.0 0.0 0.0 0.0
0.0 0.0 0.0 0.0 0.0 0.0 0.0 0.0
0.0 0.0 0.0 0.0 0.0 0.0 0.0 0.0
0.0 0.0 0.0 0.0 0.0 0.0 0.0 0.0
0.0 0.0 0.0 0.0 0.0 0.0 0.0 0.0
0.0 0.0 0.0 0.0 0.0 0.0 0.0 0.0
0.0 0.0 0.0 0.0 0.0 0.0 0.0 0.0
0.0 0.0 0.0 0.0 0.0 0.0 0.0 0.0
0.0 0.0 0.0 0.0 0.0 0.0 0.0 0.0
0.0 0.0 0.0 0.0 0.0 0.0 0.0 0.0
0.0 0.0 0.0 0.0 0.0 0.0 0.0 0.0
0.0 0.0 0.0 0.0 0.0 0.0 0.0 0.0
0.0 0.0 0.0 0.0 0.0 0.0 0.0 0.0
0.0 0.0 0.0 0.0 0.0 0.0 0.0 0.0
0.0 0.0 0.0 0.0 0.0 0.0 0.0 0.0
0.0 0.0 0.0 0.0 0.0 0.0 0.0 0.0
0.0 0.0 0.0 0.0 0.0 0.0 0.0 0.0
0.0 0.0 0.0 0.0 0.0 0.0 0.0 0.0
0.0 0.0 0.0 0.0 0.0 0.0 0.0 0.0
0.0 0.0 0.0 0.0 0.0 0.0 0.0 0.0
0.0 0.0 0.0 0.0 0.0 0.0 0.0 0.0
0.0 0.0 0.0 0.0 0.0 0.0 0.0 0.0
0.0 0.0 0.0 0.0 0.0 0.0 0.0 0.0
0.0 0.0 0.0 0.0 0.0 0.0 0.0 0.0
0.0 0.0 0.0 0.0 0.0 0.0 0.0 0.0
0.0 0.0 0.0 0.0 0.0 0.0 0.0 0.0

weight_ih f4 [128, 122]
00000000: 100f e63d ec8c e83c fd57 913d 10ec 28bd
00000010: 86dc d8bd 7e0d 31be 24db fd3d f2bf e9bd
00000020: 46b6 a4bd f4d8 eb3d 34b3 a83b c987 f1bd
00000030: 62e2 42bd 392a 323d d57d d63c c3bf bbbd
00000040: 0c7e 203e 8118 d53d 75b3 2e3e 1e55 843d
00000050: cbed bc3d bc9d 19bd 3118 0f3e 5bf6 16be
00000060: 05a1 533d d505 513c f7ce 5bbb ce2d 0cbd
00000070: dc25 893d 14c1 f1bd 4829 f73d 9e30 8fbd
00000080: 7323 a63d eb80 183e c633 0bbd 1d6b a4bb
00000090: a88b a53c 1ede 86bd b7a6 abbd c822 f33d
000000a0: 5227 14be 7e9b d43d f6c1 f83d 294b 12be
000000b0: 39b1 00be feba 1e3e b023 c9bc 5cc2 edbd
000000c0: 55d1 0c3e d41b 2a3e be64 e83d e3bd 1cbd
000000d0: b559 c83d 2e61 ce3d 71e0 213d 198d 803d
000000e0: 8e37 ffbc be82 2dbe 82d6 933d 8bb1 8fbd
000000f0: 029f 11be 1d30 d63d c21a d1bd 9cac 003d
00000100: 3e62 cd3d e443 fdbd 3a1b 03be 5116 cebd
00000110: b4d7 213e 4253 b1bd b492 cb3d eb44 703d
00000120: 9df1 f83d 1ac6 a83d e19e 6b3d cc4b 053e
00000130: 42e0 a43d 27de c83d ef72 273e 8e20 28be
00000140: 6c8c b33d a840 2fbe 6c4a 3f3d f643 003e
00000150: efe2 cebd 8c16 2fbe 0ede f83d 6fb8 adbc
00000160: 27db 003e b5a4 17be 3ea4 313e 6835 4d3d
00000170: ebca ea3d efa1 a3bc f6cf c63c 225a 00bd
00000180: 0f67 2fbd 4c0b 063e 2067 b03c 5f99 afbd
00000190: dc1e 153e e934 c1bc 06af 343d 008e 623d
000001a0: 496f 123d 7465 06be 9bc5 143d 649f 283e
000001b0: 4341 8dbb b2bd ddbd 4818 c2bc afef 0bbe
000001c0: 2c2c 19be 218d dcbb d0f3 01be 8896 1c3e
000001d0: 7908 34be fa2f 0abd 7fe4 203e 0881 b8bc
000001e0: 8602 c53d c0e7 22bd f77a 123e f02a febd
000001f0: 5c51 313e 4d88 e4bd d296 2dbe d862 03be
00000200: 2540 b6bd fc15 8abd d348 253d 45db 213d
00000210: ecf6 213e 8446 88bc a737 04be 72e3 97bd
00000220: 5e2b 9b3d ce54 32be 8799 143c 3a58 893d
00000230: b789 0d3c af2c f53d a8bc 02be 79ee db3d
00000240: c836 833d 3f06 58bd 5790 09be 7d74 dbbc
00000250: 01dd 15be 0c9f e4bd 63c1 133e 4f8c 2c3e
00000260: 9b59 0f3e 0302 973d fc3b 2dbb 502f 21be
00000270: 2ec1 abba e004 f8bc cc9b 2c3e ddfd b23d
00000280: d660 103e 7b0f debd 488f 9abd c73d 84bc
00000290: ea8f 1e3e 348f 893d 17dc 0e3e 18d8 dfbd
000002a0: ec8f 8c3d ab4a 24bd f803 293e b303 143e
000002b0: ecc7 f3bc 9ab2 e23d d8a6 e8bc f030 533c
000002c0: 8731 afbc a9f9 ff3d 0e4e 53bc 0bb8 113e
000002d0: 0150 883b 97ff ec3c 40b3 9bbc 7d33 19be
000002e0: ecf6 593d 999d 1f3e 7e7b 2abd 67dd d53c
000002f0: dcd5 84bc dc26 eebc 2551 f23d 9528 ed3d
00000300: cef7 233d 37b8 0abe b1eb 85bd 6c8f d6bd
00000310: 4cb0 f03d d316 20be 115b 2fbe e679 813d
00000320: 3141 8d3c deda 8ebd 24b9 45bd 718d 2abe
00000330: 381b 73bd 6fed 283d 5132 773d ab0a 0b3d
00000340: 616b 2f3e 7c87 333e f3cf ccbd 29d3 47bd
00000350: 6224 b53b 8174 403d 6d02 ae3d 65cc dd3d
00000360: 2a17 91bd eb77 f33d 341e 01be e664 bc3d
00000370: 65b4 28be 9cdd 98bd e4a7 203e 8f40 d8bc
00000380: 1fd6 9dbc 9662 023e 5973 123e 54f1 91bd
00000390: 4a3b 40bd 853d 153e ca79 263d 7aee 133e
000003a0: 556f efbd 1d64 8a3c dd74 2c3e 9fc1 053e
000003b0: a1c8 21bd a89d acbd b545 4e3d 9b7e ea3d
000003c0: 3070 093e 356f 0fbe 89e7 1e3e 3dc0 213e
000003d0: 95da 2dbd db8d 25be 2987 e03d 16e2 f73d
000003e0: c8cb 143e e4bc 123e 9381 d83d f924 be3d
000003f0: 56d2 4a3d 058b dabd a3b3 b6bd 3603 74bd
0.11233342 0.02838751 0.070968606 -0.04124075 -0.105889365 -0.17290303 0.123953134 -0.11413564
-0.080425784 0.1151599 0.005148316 -0.11793477 -0.047579177 0.043497298 0.026183048 -0.09167435
0.15673083 0.104050644 0.17060645 0.06461547 0.09225043 -0.037503943 0.13974072 -0.14742415
0.051667232 0.012757738 -0.0033540109 -0.03422337 0.06696674 -0.11804405 0.12068421 -0.06991695
0.0811223 0.14892928 -0.033984922 -0.0050176517 0.020208195 -0.06585334 -0.08381408 0.11871868
-0.14468125 0.1038122 0.1214637 -0.14286484 -0.12567605 0.1550102 -0.02455315 -0.11609337
0.13751729 0.16612178 0.1134734 -0.038267028 0.09782735 0.10077129 0.039520685 0.06276912
-0.03115442 -0.16944405 0.072186485 -0.070162855 -0.14220813 0.10458396 -0.10210182 0.031414613
0.10028504 -0.12366465 -0.12803355 -0.1006285 0.1580494 -0.08658458 0.09940091 0.058659475
0.12155459 0.0824091 0.057524566 0.13017195 0.08050586 0.09807997 0.16352437 -0.16418669
0.08767018 -0.17114508 0.046701834 0.12525925 -0.10101878 -0.17098445 0.121517286 -0.021206109
0.125836 -0.14808924 0.1734781 0.05009976 0.11464485 -0.019974677 0.024269085 -0.031335957
-0.042822894 0.13090247 0.021533549 -0.08574175 0.14562553 -0.0235848 0.044112228 0.055311203
0.03575066 -0.13124639 0.036321264 0.16467053 -0.0043107583 -0.10827197 -0.023693219 -0.13665651
-0.14958256 -0.006730691 -0.12690663 0.15291798 -0.17581357 -0.03373716 0.15712164 -0.022522464
0.09619622 -0.039771795 0.1430472 -0.124105334 0.17316192 -0.1115881 -0.16952065 -0.12830675
-0.08898953 -0.067424744 0.040352654 0.039515752 0.1581685 -0.016635187 -0.12911855 -0.074164286
0.07576631 -0.17415163 0.009069807 0.06706281 0.008638791 0.11971413 -0.12767279 0.107388444
0.06406933 -0.05274033 -0.13433968 -0.026788944 -0.14635088 -0.11163148 0.1442924 0.16850398
0.13999026 0.073734306 -0.0026433459 -0.15740705 -0.0013103837 -0.030275762 0.16856307 0.08739827
0.1409944 -0.108427964 -0.0754686 -0.016142739 0.15484586 0.06716767 0.13951145 -0.109298885
0.068633884 -0.04011027 0.1650542 0.14454536 -0.029758416 0.11069222 -0.02839987 0.012890086
-0.021385921 0.12498791 -0.012897028 0.14230363 0.004159928 0.028930468 -0.019006371 -0.14961047
0.053214 0.15587462 -0.041621678 0.02610655 -0.016215257 -0.029071264 0.11831883 0.11580006
0.040031247 -0.13546835 -0.06539095 -0.10476574 0.11752376 -0.15633707 -0.17124583 0.063220784
0.017243 -0.06975339 -0.048272267 -0.16655518 -0.05935213 0.04124206 0.06035072 0.03394572
0.17130806 0.17532152 -0.10000601 -0.048785362 0.005528019 0.046986107 0.084965564 0.10830001
-0.07084496 0.11888107 -0.12609178 0.09198932 -0.16475065 -0.07464144 0.15689045 -0.026397971
-0.01926714 0.1273292 0.14301814 -0.07126108 -0.046931542 0.14574249 0.04064349 0.1444644
-0.11691157 0.01689344 0.16841455 0.13062142 -0.039497975 -0.08428508 0.050359447 0.11449929
0.13421702 -0.14007266 0.15518011 0.1579599 -0.042444784 -0.16167395 0.1096328 0.12103669
0.14530861 0.14329869 0.10571589 0.09284396 0.049517 -0.10671047 -0.08920982 -0.059573375

weight_hh f4 [128, 32]
00000000: 273b 81bd 9609 e73d 8ed8 18be 2dfa 2d3e
00000010: 2ff1 93bc 1e88 66bd d5b9 e53c f9e5 d0bb
00000020: 3596 513c 86e4 23be 5be8 4f3d 92ab 16be
00000030: f625 a4bd d805 1e3e df72 583d 9ee5 f23d
00000040: 6c88 0ebe 4bbe 12be 6325 74bd 3d06 e8bd
00000050: 4a2a 40be af22 ef3d 2548 203e 34e7 253e
00000060: e6eb c4bd 0cf6 37be eaf0 cbbd 9ff0 0e3e
00000070: e57d c93c 9893 973d d2cd 1fbe 9772 293d
00000080: 41f2 ef3d 143f 1cbe a86a 75bd 2341 9c3c
00000090: 92c2 9d3d e1dd 11be e007 903d b11e 093e
000000a0: 5b12 903d 5807 a53d f2cf 9f3d 3b2a 713d
000000b0: f5cc 783d b418 0b3e c5a9 01be c629 16be
000000c0: ddec 723d f087 ffbc 2330 4ebb df70 2fbe
000000d0: 83a8 dc3d b46d 903d 94cf db3d 8f55 dbbc
000000e0: 57ef a1bd 9038 31be 17eb e13d e939 34be
000000f0: 4fa0 2cbe 6b90 213e bb38 cc3d 8981 bebd
00000100: baa6 8e3d 1648 713d 63a2 523c 2b6c 97bd
00000110: f62a a6bd 3546 8d3d 881b 1c3e 4063 133c
00000120: e172 0c3c 75ce 76bd b1df f83b 03c2 bdbd
00000130: 49c0 b7bd 5c19 963d eb71 3c3d 314d 223e
00000140: 7eb3 85bd 9283 70bb a08d afbd d105 933c
00000150: 6ff6 19be 8bb1 3cbe 4386 a2bd 9a70 04be
00000160: f11a fcbd 54a0 b2bb 3bdf f5bd 2c60 d1bd
00000170: f0e4 843d c8ed a7bd cfbf d8bd 2f6e 1d3d
00000180: ebab 80bb ca71 a23c 20dc bdbc ac68 1dbd
00000190: fd84 b93c 7306 043e 0610 bb3c 15f8 aebd
000001a0: 2fc8 11be fe2b 15be e1e2 163c 4e3f 863d
000001b0: 7580 83bd ff3f c73c 6c1d a2bd 6e6d 9bbd
000001c0: 08ff 1a3e 4746 f3bd 5ee1 db3c 5ba5 263e
000001d0: 4570 1ebd a413 bbbd a298 31be 75d4 09be
000001e0: 7c90 e93d 296a 09be ab74 07be 2e0a 2fbc
000001f0: 96c9 11be be40 22be 2ffc b13d b8bc 21be
00000200: d2b5 e339 b786 1cbe 258d 49bd 5b2f 1dbe
00000210: 2e82 debd 038b 15be 1cfc f6bd d20c d73d
00000220: c7cf b6bc 7866 0f3e 0b29 5a3c 00f8 983d
00000230: 70a6 fabd b9c2 90bc 82c3 b4bd cd8f 7a3c
00000240: 7679 7f3d 3189 a83d bc90 24be 3652 ffbc
00000250: ee75 dcbc ddfb e63c 1a6f e7bc bfb7 b2bd
00000260: 49a2 a73d 24c9 66bb 2838 dbbd 413b 353e
00000270: db4d 90bd d915 a9bd 39ea 02bd eb14 9a3d
00000280: 3a02 1fbe 38be fdbc 85b8 2f3e 3628 9b3d
00000290: 507f 143d 296b 31ba cabf 8d3d f502 e0bc
000002a0: f446 b9bc acf2 eebd 024d 07be 0ffa 0bbe
000002b0: 8caa cd3d fe82 d13d 63d9 afbd 9c62 d8bd
000002c0: 3278 afbd cc38 153e 527b 443d 5003 113e
000002d0: 7948 fbbd d94e 95bd 4b4a 923d d96b 52bd
000002e0: 34f9 a7bd 5edf 0abe c78e a13d 1688 963d
000002f0: 59ee 1cbe f617 b4bd 4a4c cdbd 819b d63d
00000300: c822 683d 785e 1f3e 7a81 00be 1a08 15be
00000310: 9aa6 a5bd 11c8 bcbd 1e39 fa3c dbf6 093e
00000320: 46c3 d63d 116a fb3d 97c6 d13d 1e40 2e3e
00000330: 6575 863b dfc0 2abe 713a 043d 6b0d 13be
00000340: 0ebd 423d 8a73 19bd 2a60 a93d e6c7 08be
00000350: 2ba9 5e3d 46d8 6b3a f353 17be 7785 013e
00000360: beee 1a3e 87f9 213e 7f5a 243e 5736 f2bd
00000370: b199 57bd 0275 30bc db1b 833d 3217 b6bd
00000380: 822d 18be 29bd 9d3d e07b 0fbe a290 ce3d
00000390: 97e0 ce3d 4fbd 2cbe d857 20bd 0058 393e
000003a0: 263d 1e3e 30bc ec3d 0d25 a53d c1a1 16bc
000003b0: 01d8 e3bc 2c03 f33d 2b66 b53d 52a5 7dbd
000003c0: b79d 133c 08be 8c3d d4ae 0b3e 1c45 95bd
000003d0: e4f5 8ebd 6c60 15be 29f2 28be 7252 2c3e
000003e0: a165 49bd 58aa 96bd 52d1 e93c fc44 0cbe
000003f0: e94d df3d 7ec6 723d c2a3 bd3d 44b4 b13d
-0.063101105 0.11281125 -0.14926359 0.16989966 -0.018059341 -0.056282155 0.028042713 -0.006375071
0.01279216 -0.16005144 0.0507587 -0.14713886 -0.08015053 0.15431917 0.052843925 0.11860202
-0.13919228 -0.14330404 -0.059605967 -0.11329315 -0.18766132 0.11676537 0.15652521 0.16201478
-0.096153066 -0.17964953 -0.0995806 0.13958977 0.024596164 0.07401198 -0.15605858 0.041369047
0.11716128 -0.15258437 -0.05991617 0.019074028 0.07703127 -0.14244796 0.07032752 0.13390614
0.07034751 0.08058041 0.07803334 0.058878165 0.060742337 0.13583642 -0.12662418 -0.14664373
0.05930792 -0.03119275 -0.0031461797 -0.171329 0.107743286 0.07052174 0.10732952 -0.026774196
-0.079069786 -0.17306733 0.11031168 -0.17600216 -0.16858028 0.15777747 0.09971758 -0.093020506
0.06965394 0.058906637 0.012856099 -0.07393678 -0.08113663 0.068981566 0.15244877 0.008995831
0.008572311 -0.060255487 0.0075950255 -0.092655204 -0.08972222 0.07329056 0.04600708 0.15849759
-0.06528376 -0.0036699516 -0.08571935 0.01794711 -0.15035413 -0.18427102 -0.07935765 -0.12933579
-0.12309826 -0.0054512415 -0.120054685 -0.102234215 0.06488979 -0.0819965 -0.105834596 0.038435157
-0.003926744 0.01982965 -0.023176253 -0.0384299 0.022646422 0.12893085 0.022834789 -0.08543412
-0.1423652 -0.14567563 0.009209366 0.06555043 -0.064209856 0.024322508 -0.07915768 -0.075892314
0.15136349 -0.11878639 0.026840862 0.16274016 -0.038681287 -0.091346055 -0.17343381 -0.13459952
0.11404511 -0.13419403 -0.13228099 -0.010683579 -0.14237055 -0.1584501 0.08690678 -0.15794647
0.0004343228 -0.15285765 -0.04920687 -0.15350096 -0.108646736 -0.1460381 -0.12059805 0.10500492
-0.022315873 0.14003932 0.0133154495 0.07469177 -0.12238777 -0.017670976 -0.08826353 0.015293074
0.062371694 0.08229292 -0.16070837 -0.03116713 -0.026911702 0.02819627 -0.02825122 -0.08726453
0.0818525 -0.0035215104 -0.1070407 0.17698385 -0.070461 -0.0825612 -0.031961653 0.07523521
-0.15528193 -0.030974492 0.17160232 0.07576029 0.036254227 -0.0006767982 0.069213465 -0.02734516
-0.02261684 -0.1166738 -0.1321297 -0.13669609 0.10042295 0.10230063 -0.08586385 -0.10565683
-0.08567847 0.14572448 0.04796917 0.1416142 -0.122696824 -0.072904296 0.071430765 -0.051372383
-0.082018286 -0.1356177 0.07888561 0.07350175 -0.15325297 -0.08793633 -0.100243166 0.10478879
0.056673795 0.1556338 -0.12549391 -0.14553872 -0.08088417 -0.09217847 0.030544814 0.13473074
0.10486464 0.1227609 0.10242956 0.17016646 0.00410335 -0.16675137 0.032282297 -0.14360587
0.047543578 -0.037463702 0.08270295 -0.13357505 0.05436055 0.0008996766 -0.14778118 0.12648569
0.15130135 0.15817843 0.16050147 -0.11826771 -0.052636806 -0.010770084 0.064017974 -0.08891143
-0.1486111 0.07702095 -0.14012098 0.1008618 0.10101431 -0.1686909 -0.039146274 0.18099976
0.15453014 0.115593314 0.080637075 -0.009193839 -0.02781296 0.11865839 0.088573776 -0.06192524
0.00900977 0.06872183 0.1364091 -0.07288572 -0.06980494 -0.14587563 -0.16498627 0.16828325
-0.049169187 -0.07356709 0.028542195 -0.1369819 0.10903532 0.05927133 0.0925975 0.08676961

bias_ih f4 [128]
00000000: 1920 723d f3ac 263e 230f bebc 83be d83c
00000010: 8571 34bd f623 1fbe 5ad2 5dbd 2346 da3d
00000020: 38f1 3d3b 939b 003e 25e2 b9bd 92fa 23be
00000030: c65d a43d af76 bdbd e903 0d3e 5121 183d
00000040: 6a50 15bc f542 e4bc 883d f7bc 5898 f3bc
00000050: c260 21be 58e0 97bd c444 03bd c69f ecbd
00000060: a610 1abd affb 233e 5666 92bd 2786 87bd
00000070: c2ff 48bd 1248 0abd 095e 343d 0d41 27be
00000080: 88ce 193e 7186 05be 20ff 32bd f44a 483c
00000090: 6f8e 07be dd6e 33be 6f6e 08be 5919 3e3e
000000a0: 178e 15be 7d33 f53d 23da a8bd 4050 2e3e
000000b0: 2e06 a23d 4fad 9dbc 639e 153e c44a 523d
000000c0: 6e36 263d ed89 f63c 0271 4e3e 8fed 4e3e
000000d0: d5cb 093e d6d4 adbd 533b b83d 9843 0ebe
000000e0: 9c73 663d e924 07be 84dd f33d 33d8 a53d
000000f0: 273e e53b 2e4c a3bd 7db8 2f3d 0d5a 09be
00000100: fa09 76bd cedc 6abd 7cd5 3d3e 6a44 46be
00000110: 6291 17be 6d15 963d ea27 0bbe b787 ac3d
00000120: 8abc 2b3e 973e 28be 2183 2d3e b3c0 353e
00000130: 6bba 073e 69ec eabd 1996 4b3d 348d 8839
00000140: 8f4e 2b3e bcfd 323d 3c92 52be adab fb3d
00000150: 39e4 17be c6d2 bb3d b251 adbd 46cc febd
00000160: b016 f23d 5ff3 59be 555e 5cbd 0fb9 ccb8
00000170: 3539 4abd 661d 9c3d 76a5 4abd f5b6 0b3e
00000180: 3932 9cbd c86e 223e 72db e6bd 496d c9bd
00000190: 463e c5bd 4fc1 c5bd 670d 903d ff1e 0b3e
000001a0: d336 633d 1d48 c63d 2aef 0a3d f69e 0dbe
000001b0: 923e b6bd 0272 013e 8af4 bb3d 1f5c 17be
000001c0: 6a51 b63d 277f da3c 4b97 3d3e 505a a2bd
000001d0: c69d f7bd 18d1 733e 9cf0 12be a621 d63c
000001e0: 2e1b b6bd 540e f03d 061e 333e e03a 9dbb
000001f0: aae9 0f3e b9b7 92bc a1d4 a63d ae70 fbbc
0.059112642 0.16276912 -0.023200577 0.02645803 -0.044053573 -0.15541062 -0.054155685 0.10657909
0.002898289 0.12559347 -0.09076337 -0.16013554 0.08025698 -0.09251153 0.13771023 0.037141148
-0.0091134105 -0.027863959 -0.030180708 -0.02973573 -0.15759566 -0.07415837 -0.032048002 -0.11553912
-0.037613533 0.16013978 -0.07148425 -0.066173844 -0.049072035 -0.033760138 0.04403499 -0.16333409
0.15020192 -0.13039567 -0.043700337 0.0122249015 -0.13237928 -0.1752276 -0.13323377 0.18564357
-0.14604984 0.11972711 -0.08244731 0.170228 0.07911335 -0.019247679 0.14611201 0.051340833
0.040579252 0.030095065 0.20160297 0.20207809 0.13456662 -0.08487861 0.0899569 -0.13892972
0.056262597 -0.13197674 0.11907485 0.08097877 0.0069959345 -0.079735145 0.04290055 -0.13413258
-0.06006811 -0.057339482 0.18538469 -0.19362035 -0.14801553 0.073283054 -0.13589445 0.08424323
0.1677114 -0.16430126 0.16944553 0.1774929 0.13254707 -0.11470873 0.04970369 0.00026045146
0.16729186 0.04369901 -0.20563596 0.12288604 -0.14833154 0.09171061 -0.08462848 -0.12441306
0.118207335 -0.21284245 -0.0538009 -9.761948e-05 -0.049370963 0.07622795 -0.049474202 0.13644011
-0.07626767 0.15862572 -0.112723246 -0.098352976 -0.09631018 -0.09656011 0.07033806 0.13586043
0.055472206 0.09681723 0.03391949 -0.1383017 -0.08898653 0.12641147 0.091775015 -0.14781235
0.08902247 0.02667196 0.18514745 -0.07927382 -0.1209064 0.23810232 -0.14349598 0.026139092
-0.08891903 0.11721483 0.17491922 -0.004798278 0.1405398 -0.017909871 0.081460245 -0.030693378

bias_hh f4 [128]
00000000: ca53 ea3d 987b 0ebb 0eda 0e3d 5729 a93d
00000010: 9618 233e 7bde fe3d 5dea d53d d05d df3d
00000020: 1847 d4bd 4ff9 943d f51b 203e 76c2 ff3d
00000030: 738b 083e d6bb 4e3d c11b 10be 0342 5d3d
00000040: bfd3 dcbd bf36 1f3d fd11 84ba 2649 bcbc
00000050: 3df2 433e 1bad 333e cebf 17be 66ac 413e
00000060: c288 f63d 6cfe f2bd 9b07 413e 8ccb f2bc
00000070: 6aec c43c 7203 403d 3ab5 cebd 65d7 ec3d
00000080: 7672 2b3e c86c 0cbd 7d42 903c 36ac 37bd
00000090: 3bf2 393e 8c05 bebd de46 33bc 325f 2f3d
000000a0: 6f24 82bd 37c3 3ebd 6db4 253e 2a6c a4bd
000000b0: 33c7 303d c747 2d3e 2e72 83bd 3d0d 1abe
000000c0: 7f6a 493e b363 393c 46ec 663d 690b a53d
000000d0: 037e b2bd 2627 4c3e e730 d23d c964 29bd
000000e0: 9035 393e 168d f43d aed8 1d3e 8cc8 173e
000000f0: bc6a b5bc f8f0 823d df97 91bd 9d5d 963d
00000100: 639e 40be 7709 c3bd 33d4 893d 7331 e63d
00000110: 3ab8 0cbe 9203 e83d 4f7a 5abd 9351 f63d
00000120: 8a9e 093e 30d8 813d 0eb4 933d 83d1 033e
00000130: 4ce2 633d a579 e63c 10aa e03d 763e fabd
00000140: 7b88 f23d fb7b 363e 30cd 21be 5556 7ebc
00000150: f7f3 ea3c 616f 3fbe 25fa a93b 34dc cebd
00000160: a982 b9bd e102 bcbc 2dd3 a6bc 9a89 6abd
00000170: 327b 22bd dcf0 c23c 928e d73d ab59 3e3d
00000180: 0d3a 74bd bc39 123e 7115 a1bd 5b0b 5dbd
00000190: f7ab 67bd 77b6 a7bc 2516 d83d d976 e63d
000001a0: 4427 873c c46b 343e 85f3 293c 1313 6f3c
000001b0: d755 a3bd d700 a8bb fc2f 323d 7e6b 1dbe
000001c0: f8b8 493e 97ab 2ebd c808 f93d 2c88 adbd
000001d0: d779 563c eeed 823e 5473 edbd 86a2 073d
000001e0: 3390 8e3d b82b 313e 172c 84bd 4f17 94bb
000001f0: 31aa 01bd 1002 f13d f677 8dbc 6d84 a63d
0.11441763 -0.0021741148 0.034875922 0.08259838 0.15927348 0.124447785 0.10445092 0.10906565
-0.103651226 0.07274114 0.15635665 0.12488262 0.13334446 0.050472103 -0.14073087 0.05401803
-0.10782575 0.03887057 -0.0010076162 -0.022984099 0.19135375 0.17546503 -0.14819261 0.18913421
0.12037803 -0.11864933 0.18850558 -0.029638074 0.024038512 0.046878286 -0.1009316 0.11564521
0.16742882 -0.03428343 0.01760983 -0.044841968 0.1815881 -0.09278402 -0.010942189 0.042815395
-0.063546054 -0.04657289 0.16182108 -0.08028443 0.04315872 0.16921912 -0.064182624 -0.15044113
0.19669531 0.011315274 0.05637767 0.08058817 -0.08715441 0.19936809 0.10263234 -0.04135588
0.18086839 0.119409725 0.15414688 0.14822596 -0.022145621 0.063936174 -0.07109045 0.07342074
-0.1881042 -0.0952329 0.06729927 0.112399004 -0.13742152 0.11328806 -0.0533393 0.12027278
0.13439384 0.063400626 0.07212077 0.12872891 0.055635735 0.028134177 0.10969937 -0.12218945
0.11842438 0.17820732 -0.15800929 -0.015523513 0.028680785 -0.18694831 0.0051872903 -0.10100594
-0.090581246 -0.022950592 -0.020364368 -0.057260133 -0.03966827 0.023796491 0.1052524 0.046472233
-0.059625674 0.14279836 -0.07865418 -0.053965908 -0.056560483 -0.020472748 0.10551099 0.11253137
0.016498215 0.17619234 0.010373001 0.01459195 -0.07975357 -0.0051270532 0.043502793 -0.15373036
0.19699466 -0.04264411 0.12159878 -0.08473238 0.013090572 0.2557215 -0.11594263 0.03311398
0.069610976 0.17301834 -0.06453722 -0.00451938 -0.031656448 0.117679715 -0.017269116 0.08130727

weight f4 [48, 32]
00000000: 1763 923d 32d6 9a3d c62c 08be 4b52 95bd
00000010: f2fc 683e 46db a7bd 3ee5 503e a211 b0bd
00000020: f822 c73d b1fa d7bc 5a77 18be 537f 923d
00000030: d37d ffbd f048 fa3c 4028 323d c136 b03d
00000040: b9b2 283d 27e0 f5bd 5935 953d cc01 aebd
00000050: 9833 4e3e 0e7c 0c3e 162c 2fbe 222b 9f3d
00000060: 3b96 49be 8953 b1bc faa5 9c3c 4620 c23c
00000070: ac2d 1fbd e61e 23be 6be0 cd3c 18fe 113e
00000080: 7014 00bd 59af 253e 8bbb 563e faea 813c
00000090: 48f8 b8bd 231e c9bc b98e 44be 25f3 b83d
000000a0: 300d c8bd f95d 2ebe d009 12be 528c 81bd
000000b0: 4fb5 6b3e 93a1 0ebd 35f1 9bbd 508e 2bbe
000000c0: 54d7 3f3e 056c 1f3e c2b5 87be f0a0 183e
000000d0: eb59 27be f238 74be c686 c53b 6e6c a43d
000000e0: 9260 8f3e dc47 27be 7210 9ebd 384b 1b3d
000000f0: 226e f3bd bbc2 10bd 7441 24be f46d dfbd
00000100: ecf7 da39 6fec 10be 2048 30bd 4cf1 c53d
00000110: 668d 9d3d b91c dd3b e88a 223d 5b6d 76bc
00000120: be33 e53d 000d 9abd 58e6 163e 2cff 87bd
00000130: a06b 483e c10e 9c3d d23c 40be 3b56 143e
00000140: 1242 633e 6bd9 b3bd 27bb 6abe f9a7 633e
00000150: e874 37bc e31a 273d 7027 01bd fa7b b0bd
00000160: a124 e23d 7742 5bbe 1d5f 3abe 263c ea3d
00000170: 8b3b 4b3d 2789 133d 073f 0a3e 1eb9 0abe
00000180: 6cc8 d1bd ac9a 083d b87f 5c3e d52a a3bd
00000190: 3f89 893d cb22 0fbe 7f35 063d 1b3f 523e
000001a0: d6a6 c13c 8f94 23be 3332 403e c9d8 063e
000001b0: c7ff 703e c676 cf3d 3ffe a73d 72e3 06bd
000001c0: 389e 7c3e e23b 2fbd a9a3 163d 30a1 4a3e
000001d0: 71e4 a13c 5037 573d 6276 9c3d 79a4 b8bd
000001e0: cfc4 083a 22a8 2dbe 8b71 babd 5116 4b3e
000001f0: cf72 77be 7083 2fbd 597d ef3b f35a f2bd
00000200: 322b 91bd 999d 22bd f2ca a0bd 5ceb 8e3d
00000210: fcee 403d 797e 693c f9bf 103d 956f 813d
00000220: 7d3c 083e 9a75 45bd 37cf 233e e834 963d
00000230: b541 1b3e 4b77 bfbd 67e6 ad3c 8edb e3bc
00000240: 525a 3dbd dce8 a43d ba11 e0bd 39c5 783e
00000250: 759e eebd a4da fbbd 17d3 ec3d 3fe1 393e
00000260: bf42 0ebd a326 4bbe 6eef 0bbe aceb 7e3d
00000270: 905e 8dbc d5a0 583d f57c 31bd dfa1 23bc
00000280: e986 1ebe 5ded fc3d 7461 1e3c fb30 15bd
00000290: d76a fb3d 9027 74bd 972f 48be cfb7 f23d
000002a0: bbd8 f9bd e11f 6abe ab5d 203e d951 953d
000002b0: 7371 853e c3ba 03be ff9d 6f3d 521d 983d
000002c0: 7116 613e e63b 463d fe44 a2be 2c08 313e
000002d0: 0fb4 69be a039 23be be68 b53d b18a 023e
000002e0: 5112 773d d268 26be 26e0 c3bd aa3a 0e3e
000002f0: bc77 2fbc e774 ec3d 3743 57be f773 523d
00000300: 2514 17be ba9d 4f3d c6f1 343d 14ad 333e
00000310: ab74 33be 0e37 32be 4120 1cbd e7bb 0c3e
00000320: 5338 86bd b3a9 07be 7205 eb3d 78e5 203e
00000330: 2c5d 7abb 3354 263d 940c 0e3e e22b 33be
00000340: 2bb5 583e a902 ee3d 8086 033d d298 2d3e
00000350: 6891 57bd d1ba f43c 38e0 4c3d 7d56 143e
00000360: a26a 51bd 1ffc 053d ed8f a1bd 2ee9 943d
00000370: 0b62 ad3d 5fb9 473e 5b7a 0b3e efa1 053e
00000380: afda 58be d11d d5bd 9cd0 afba 164f e7bd
00000390: 1985 913d f18e 26bd e71f 1bbe d6c5 533e
000003a0: c99b 03be a808 82bd aec3 d73d 51bf 123e
000003b0: 2a47 4d3e 89c3 d93c 9814 3e3d 7a0d 87bd
000003c0: 45c4 45bd 6323 01bd 5798 c03c 96f7 353d
000003d0: 98b1 153d 7c51 3bbe b914 c13b 0683 333e
000003e0: 1c2c eabc 1132 1abd 264a c7bd e75e 2d3d
000003f0: b7d0 863d 80ab 443c c4e6 07be 0df9 c9bd
0.07147806 0.07560386 -0.1329833 -0.07291087 0.22752741 -0.0819612 0.20399949 -0.08597113
0.09723467 -0.026364656 -0.14889279 0.071531914 -0.12475171 0.030552357 0.043495417 0.086041935
0.04118607 -0.12005644 0.07285566 -0.084964365 0.20136869 0.13719198 -0.17106661 0.07771899
-0.19686215 -0.021646278 0.019122113 0.02369703 -0.038861915 -0.15929756 0.025131425 0.14257085
-0.03126949 0.16180171 0.2096998 0.015859116 -0.09031731 -0.024550503 -0.1919507 0.09030751
-0.0976814 -0.17028035 -0.14261556 -0.06325592 0.23018382 -0.034822058 -0.07614366 -0.16753507
0.18734485 0.1556855 -0.26505858 0.14905143 -0.16342895 -0.23849848 0.006028029 0.08028494
0.28003365 -0.16336006 -0.077179804 0.03791353 -0.118862405 -0.03534196 -0.16040593 -0.10909644
0.00041764916 -0.14152692 -0.043037534 0.09665164 0.07692985 0.006747809 0.039683253 -0.015040721
0.1119151 -0.07522011 0.14736307 -0.06640467 0.19572306 0.076200016 -0.18773201 0.1448602
0.22193173 -0.087817036 -0.22922955 0.22232045 -0.011197306 0.040797126 -0.03153175 -0.08617397
0.11042143 -0.21412073 -0.18200345 0.11437254 0.04961733 0.03601947 0.13500606 -0.13547179
-0.102433056 0.03335063 0.21533096 -0.07967154 0.06715631 -0.13978116 0.03276586 0.20531885
0.023639124 -0.1597464 0.1876915 0.13168634 0.23535071 0.10130076 0.082027905 -0.032931753
0.2466973 -0.042781718 0.036777172 0.1978805 0.01976225 0.052542984 0.07639767 -0.09015746
0.0005217315 -0.16958669 -0.09103688 0.19832732 -0.2416489 -0.042849958 0.007308644 -0.118337534
-0.07088317 -0.039701078 -0.07851209 0.06978485 0.047102913 0.014251345 0.03533933 0.06320111
0.13304324 -0.048207857 0.15997015 0.0733431 0.15161784 -0.09348925 0.021228028 -0.027814653
-0.046228714 0.08052227 -0.10940881 0.24293984 -0.11651317 -0.12297562 0.115637 0.18152331
-0.034731623 -0.19838957 -0.13665554 0.062236473 -0.017257005 0.052887756 -0.04333206 -0.009987324
-0.15481152 0.12349961 0.009666789 -0.036423665 0.122762375 -0.059608042 -0.19549404 0.11851465
-0.12199541 -0.22863723 0.15660731 0.07291002 0.26063117 -0.12864213 0.058500286 0.074274674
0.21981217 0.048396967 -0.31693262 0.17288274 -0.22822593 -0.15939951 0.088578686 0.12748219
0.060320202 -0.16250923 -0.09564237 0.13889566 -0.010709699 0.11545735 -0.21021734 0.051380124
-0.14753778 0.05068753 0.044175886 0.17546493 -0.17524974 -0.17403814 -0.038116697 0.13743554
-0.06553712 -0.13248329 0.11475648 0.15712535 -0.0038202507 0.040607642 0.13871986 -0.17497209
0.2116286 0.11621601 0.03211069 0.16952828 -0.052628905 0.029874237 0.05001852 0.14486118
-0.051127084 0.032711145 -0.0788878 0.07271038 0.08465966 0.19504307 0.13620894 0.13050054
-0.21177171 -0.10406078 -0.0013413611 -0.11294381 0.071054645 -0.040663663 -0.15148889 0.20680937
-0.12852396 -0.06349307 0.1053537 0.14330794 0.20046678 0.026582496 0.04640636 -0.06594367
-0.04828288 -0.031527888 0.023510141 0.04442557 0.03654632 -0.18292803 0.005892363 0.1753045
-0.028585486 -0.037645403 -0.097309396 0.042326834 0.06582778 0.012003779 -0.13271624 -0.09861956

bias f4 [48]
00000000: 1818 6fbe f1ba 283e df0b 4e3e c156 fb3c
00000010: 328a 8b3e 9e51 f43e 7d56 373e 42cc 4c3e
00000020: 64a2 163e f973 973e 1ba2 94be 6d0d ccbd
00000030: 0bc9 4b3e 235f b8bb e722 c53d 3a32 4f3e
00000040: 1011 5bbd 8eeb 8abc a7ad 933e d703 8c3e
00000050: 4340 9b3e 2edb 543e 582c ee3d 1960 463e
00000060: 68b1 bdbd 609e 943d b30c 03bd e27a 6ebd
00000070: 9ba7 8ebe 8cd6 e8bd 6f5b d8bd 757a f7bd
00000080: 3f7d 12bd 3fbd 28be f03c 33be d376 0cbe
00000090: a768 1abe b4c8 073f 9187 c73d f0ca e33d
000000a0: 31aa 1dbe 2e94 81be d1e4 fcbc c018 1cbd
000000b0: 8a5d 86be 67a4 92bd af30 39bd 4744 dfbc
-0.23349035 0.16477562 0.20121716 0.030681016 0.27253872 0.4771852 0.17904086 0.19999793
0.14710385 0.29580668 -0.29029927 -0.09963498 0.1990091 -0.0056265756 0.09625798 0.20234004
-0.05348307 -0.016958024 0.28843424 0.2734668 0.30322465 0.20786735 0.11629552 0.19372596
-0.09262353 0.0725677 -0.031994533 -0.05822266 -0.27862248 -0.113690466 -0.105643146 -0.12083904
-0.035763975 -0.16478442 -0.17503715 -0.13717203 -0.15078984 0.53040624 0.09742654 0.11122692
-0.15396954 -0.25308365 -0.030870827 -0.03810954 -0.2624324 -0.071602635 -0.045212444 -0.027254237
